…
{"type":"message","id":"5d1300b8","parentId":"1682a907","timestamp":"2026-05-25T08:29:41.269Z","message":{"role":"toolResult","toolCallId":"call_function_8upcn4rmrm4j_1","toolName":"process","content":[{"type":"text","text":"Before patches - checking MRO:\n  Module has forward in __dict__\n\nModel has forward: False\nGenerationMixin has forward: False\n\nmodel.forward is: <bound method _forward_unimplemented of Qwen3OmniMoeForConditionalGeneration(\n  (thinker): Qwen3OmniMoeThinkerForConditionalGeneration(\n    (audio_tower): Qwen3OmniMoeAudioEncoder(\n      (positional_embedding): SinusoidsPositionEmbedding()\n      (layers): ModuleList(\n        (0-31): 32 x Qwen3OmniMoeAudioEncoderLayer(\n          (self_attn): Qwen3OmniMoeAudioAttention(\n            (k_proj): Linear(in_features=1280, out_features=1280, bias=True)\n            (v_proj): Linear(in_features=1280, out_features=1280, bias=True)\n            (q_proj): Linear(in_features=1280, out_features=1280, bias=True)\n            (out_proj): Linear(in_features=1280, out_features=1280, bias=True)\n          )\n          (self_attn_layer_norm): LayerNorm((1280,), eps=1e-05, elementwise_affine=True)\n          (activation_fn): GELUActivation()\n          (fc1): Linear(in_features=1280, out_features=5120, bias=True)\n          (fc2): Linear(in_features=5120, out_features=1280, bias=True)\n          (final_layer_norm): LayerNorm((1280,), eps=1e-05, elementwise_affine=True)\n        )\n      )\n      (ln_post): LayerNorm((1280,), eps=1e-05, elementwise_affine=True)\n      (conv2d1): Conv2d(1, 480, kernel_size=(3, 3), stride=(2, 2), padding=(1, 1))\n      (conv2d2): Conv2d(480, 480, kernel_size=(3, 3), stride=(2, 2), padding=(1, 1))\n      (conv2d3): Conv2d(480, 480, kernel_size=(3, 3), stride=(2, 2), padding=(1, 1))\n      (conv_out): Linear(in_features=7680, out_features=1280, bias=False)\n      (proj1): Linear(in_features=1280, out_features=1280, bias=True)\n      (act): GELUActivation()\n      (proj2): Linear(in_features=1280, out_features=2048, bias=True)\n    )\n    (visual): Qwen3OmniMoeVisionEncoder(\n      (merger_list): ModuleList(\n        (0-2): 3 x Qwen3OmniMoeVisionPatchMerger(\n          (ln_q): LayerNorm((4608,), eps=1e-06, elementwise_affine=True)\n          (mlp): ModuleList(\n            (0): Linear(in_features=4608, out_features=4608, bias=True)\n            (1): GELU(approximate='none')\n            (2): Linear(in_features=4608, out_features=2048, bias=True)\n          )\n        )\n      )\n      (patch_embed): Qwen3OmniMoeVisionPatchEmbed(\n        (proj): Conv3d(3, 1152, kernel_size=(2, 16, 16), stride=(2, 16, 16))\n      )\n      (pos_embed): Embedding(2304, 1152)\n      (rotary_pos_emb): Qwen3OmniMoeVisionRotaryEmbedding()\n      (blocks): ModuleList(\n        (0-26): 27 x Qwen3OmniMoeVisionBlock(\n          (norm1): LayerNorm((1152,), eps=1e-06, elementwise_affine=True)\n          (norm2): LayerNorm((1152,), eps=1e-06, elementwise_affine=True)\n          (attn): Qwen3OmniMoeVisionAttention(\n            (qkv): Linear(in_features=1152, out_features=3456, bias=True)\n            (proj): Linear(in_features=1152, out_features=1152, bias=True)\n          )\n          (mlp): Qwen3OmniMoeVisionMLP(\n            (linear_fc1): Linear(in_features=1152, out_features=4304, bias=True)\n            (linear_fc2): Linear(in_features=4304, out_features=1152, bias=True)\n            (act_fn): GELUTanh()\n          )\n        )\n      )\n      (merger): Qwen3OmniMoeVisionPatchMerger(\n        (ln_q): LayerNorm((1152,), eps=1e-06, elementwise_affine=True)\n        (mlp): ModuleList(\n          (0): Linear(in_features=4608, out_features=4608, bias=True)\n          (1): GELU(approximate='none')\n          (2): Linear(in_features=4608, out_features=2048, bias=True)\n        )\n      )\n    )\n    (model): Qwen3OmniMoeThinkerTextModel(\n      (embed_tokens): Embedding(152064, 2048)\n      (layers): ModuleList(\n        (0-47): 48 x Qwen3OmniMoeThinkerTextDecoderLayer(\n          (self_attn): Qwen3OmniMoeThinkerTextAttention(\n            (q_proj): QuantLinear()\n            (k_proj): QuantLinear()\n            (v_proj): QuantLinear()\n            (o_proj): QuantLinear()\n            (q_norm): Qwen3OmniMoeThinkerTextRMSNorm((128,), eps=1e-06)\n            (k_nor
…
      (0-127): 128 x Qwen3OmniMoeThinkerTextMLP(\n                (gate_proj): QuantLinear()\n                (up_proj): QuantLinear()\n                (down_proj): QuantLinear()\n                (act_fn): SiLUActivation()\n              )\n            )\n          )\n          (input_layernorm): Qwen3OmniMoeThinkerTextRMSNorm((2048,), eps=1e-06)\n          (post_attention_layernorm): Qwen3OmniMoeThinkerTextRMSNorm((2048,), eps=1e-06)\n        )\n      )\n      (norm): Qwen3OmniMoeTextRMSNorm((2048,), eps=1e-06)\n      (rotary_emb): Qwen3OmniMoeThinkerTextRotaryEmbedding()\n    )\n    (lm_head): Linear(in_features=2048, out_features=152064, bias=False)\n  )\n  (talker): Qwen3OmniMoeTalkerForConditionalGeneration(\n    (model): Qwen3OmniMoeTalkerModel(\n      (layers): ModuleList(\n        (0-19): 20 x Qwen3OmniMoeTalkerDecoderLayer(\n          (self_attn): Qwen3OmniMoeThinkerTextAttention(\n            (q_proj): Linear(in_features=1024, out_features=2048, bias=False)\n            (k_proj): Linear(in_features=1024, out_features=256, bias=False)\n            (v_proj): Linear(in_features=1024, out_features=256, bias=False)\n            (o_proj): Linear(in_features=2048, out_features=1024, bias=False)\n            (q_norm): Qwen3OmniMoeThinkerTextRMSNorm((128,), eps=1e-06)\n            (k_norm): Qwen3OmniMoeThinkerTextRMSNorm((128,), eps=1e-06)\n          )\n          (mlp): LinearQwen3OmniTalkerSparseMoeBlock(\n            (gate): Qwen3OmniMoeTalkerTextTopKRouter()\n            (shared_expert): Qwen3OmniMoeTalkerTextMLP(\n              (gate_proj): Linear(in_features=1024, out_features=768, bias=False)\n              (up_proj): Linear(in_features=1024, out_features=768, bias=False)\n              (down_proj): Linear(in_features=768, out_features=1024, bias=False)\n              (act_fn): SiLUActivation()\n            )\n            (shared_expert_gate): Linear(in_features=1024, out_features=1, bias=False)\n            (experts): SequentialQwen3OmniTalkerExperts(\n              (0-127): 128 x Qwen3OmniMoeTalkerTextMLP(\n                (gate_proj): Linear(in_features=1024, out_features=384, bias=False)\n                (up_proj): Linear(in_features=1024, out_features=384, bias=False)\n                (down_proj): Linear(in_features=384, out_features=1024, bias=False)\n                (act_fn): SiLUActivation()\n              )\n            )\n          )\n          (input_layernorm): Qwen3OmniMoeThinkerTextRMSNorm((1024,), eps=1e-06)\n          (post_attention_layernorm): Qwen3OmniMoeThinkerTextRMSNorm((1024,), eps=1e-06)\n        )\n      )\n      (norm): Qwen3OmniMoeTextRMSNorm((1024,), eps=1e-06)\n      (rotary_emb): Qwen3OmniMoeTalkerRotaryEmbedding()\n      (codec_embedding): Embedding(3072, 1024)\n    )\n    (text_projection): Qwen3OmniMoeTalkerResizeMLP(\n      (linear_fc1): Linear(in_features=2048, out_features=2048, bias=True)\n      (linear_fc2): Linear(in_features=2048, out_features=1024, bias=True)\n      (act_fn): SiLUActivation()\n    )\n    (hidden_projection): Qwen3OmniMoeTalkerResizeMLP(\n      (linear_fc1): Linear(in_features=2048, out_features=2048, bias=True)\n      (linear_fc2): Linear(in_features=2048, out_features=1024, bias=True)\n      (act_fn): SiLUActivation()\n    )\n    (codec_head): Linear(in_features=1024, out_features=3072, bias=False)\n    (code_predictor): Qwen3OmniMoeTalkerCodePredictorModelForConditionalGeneration(\n      (model): Qwen3OmniMoeTalkerCodePredictorModel(\n        (layers): ModuleList(\n          (0-4): 5 x Qwen3OmniMoeTalkerCodePredictorDecoderLayer(\n            (self_attn): Qwen3OmniMoeTalkerCodePredictorAttention(\n              (q_proj): Linear(in_features=1024, out_features=2048, bias=False)\n              (k_proj): Linear(in_features=1024, out_features=1024, bias=False)\n              (v_proj): Linear(in_features=1024, out_features=1024, bias=False)\n              (o_proj): Linear(in_features=2048, out_features=1024, bias=False)\n              (q_norm): Qwen3OmniMoeRMSNorm((128,), eps=1e-06)\n              (k_norm): Qwen3OmniMoeRMSNorm((128,), eps=1e-06)\n            )\n            (mlp): Qwen3OmniMoeMLP(\n              (gate_proj): Linear(in_features=1024, out_features=3072, bias=False)\n              (up_proj): Linear(in_features=1024, out_features=3072, bias=False)\n              (down_proj): Linear(in_features=3072, out_features=1024, bias=False)\n              (act_fn): SiLUActivation()\n            )\n            (input_layernorm): Qwen3OmniMoeRMSNorm((1024,), eps=1e-06)\n            (post_attention_layernorm): Qwen3OmniMoeRMSNorm((1024,), eps=1e-06)\n          )\n        )\n        (norm): Qwen3OmniMoeRMSNorm((1024,), eps=1e-06)\n        (rotary_emb): Qwen3OmniMoeRotaryEmbedding()\n        (codec_embedding): ModuleList(\n          (0-14): 15 x Embedding(2048, 1024)\n        )\n      )\n      (lm_head): ModuleList(\n        (0-14): 15 x Linear(in_features=1024, out_features=2048, bias=False)\n      )\n    )\n  )\n  (code2wav): Qwen3OmniMoeCode2Wav(\n    (pre_transformer): Qwen3OmniMoeCode2WavTransformerModel(\n      (layers): ModuleList(\n        (0-7): 8 x Qwen3OmniMoeCode2WavTransformerLayer(\n          (self_attn): Qwen3OmniMoeCode2WavAttention(\n            (q_proj): Linear(in_features=1024, out_features=1024, bias=False)\n            (k_proj): Linear(in_features=1024, out_features=1024, bias=False)\n            (v_proj): Linear(in_features=1024, out_features=1024, bias=False)\n            (o_proj): Linear(in_features=1024, out_features=1024, bias=False)\n            (q_norm): Identity()\n            (k_norm): Identity()\n          )\n          (mlp): Qwen3OmniMoeCode2WavMlp(\n            (gate_proj): Linear(in_features=1024, out_features=3072, bias=False)\n            (up_proj): Linear(in_features=1024, out_features=3072, bias=False)\n            (down_proj): Linear(in_features=3072, out_features=1024, bias=False)\n            (act_fn): SiLUActivation()\n          )\n          (input_layernorm): Qwen3OmniMoeCode2WavRMSNorm((1024,), eps=1e-05)\n          (post_attention_layernorm): Qwen3OmniMoeCode2WavRMSNorm((1024,), eps=1e-05)\n          (self_attn_layer_scale): Qwen3OmniMoeCode2WavLayerScale()\n          (mlp_layer_scale): Qwen3OmniMoeCode2WavLayerScale()\n        )\n      )\n      (norm): Qwen3OmniMoeRMSNorm((1024,), eps=1e-05)\n      (rotary_emb): Qwen3OmniMoeRotaryEmbedding()\n    )\n    (code_embedding): Embedding(32768, 1024)\n    (upsample): ModuleList(\n      (0-1): 2 x ModuleList(\n        (0): Qwen3OmniMoeCausalTransConvNet(\n          (conv): ConvTranspose1d(1024, 1024, kernel_size=(2,), stride=(2,))\n        )\n        (1): Qwen3OmniMoeConvNeXtBlock(\n          (dwconv): Qwen3OmniMoeCausalConvNet(\n            (conv): Conv1d(1024, 1024, kernel_size=(7,), stride=(1,), groups=1024)\n          )\n          (norm): LayerNorm((1024,), eps=1e-06, elementwise_affine=True)\n          (pwconv1): Linear(in_features=1024, out_features=4096, bias=True)\n          (act): GELU(approximate='none')\n          (pwconv2): Linear(in_features=4096, out_features=1024, bias=True)\n        )\n      )\n    )\n    (decoder): ModuleList(\n      (0): Qwen3OmniMoeCausalConvNet(\n        (conv): Conv1d(1024, 1536, kernel_size=(7,), stride=(1,))\n      )\n      (1): Qwen3OmniMoeCode2WavDecoderBlock(\n        (block): ModuleList(\n          (0): SnakeBeta()\n          (1): Qwen3OmniMoeCausalTransConvNet(\n            (conv): ConvTranspose1d(1536, 768, kernel_size=(16,), stride=(8,))\n          )\n          (2): Qwen3OmniMoeCode2WavDecoderResidualUnit(\n            (act1): SnakeBeta()\n            (conv1): Qwen3OmniMoeCausalConvNet(\n              (conv): Conv1d(768, 768, kernel_size=(7,), stride=(1,))\n            )\n            (act2): SnakeBeta()\n            (conv2): Qwen3OmniMoeCausalConvNet(\n              (conv): Conv1d(768, 768, kernel_size=(1,), stride=(1,))\n            )\n          )\n          (3): Qwen3OmniMoeCode2WavDecoderResidualUnit(\n            (act1): SnakeBeta()\n            (conv1): Qwen3OmniMoeCausalConvNet(\n              (conv): Conv1d(768, 768, kernel_size=(7,), stride=(1,), dilation=(3,))\n            )\n            (act2): SnakeBeta()\n            (conv2): Qwen3OmniMoeCausalConvNet(\n              (conv): Conv1d(768, 768, kernel_size=(1,), stride=(1,))\n            )\n          )\n          (4): Qwen3OmniMoeCode2WavDecoderResidualUnit(\n            (act1): SnakeBeta()\n            (conv1): Qwen3OmniMoeCausalConvNet(\n              (conv): Conv1d(768, 768, kernel_size=(7,), stride=(1,), dilation=(9,))\n            )\n            (act2): SnakeBeta()\n            (conv2): Qwen3OmniMoeCausalConvNet(\n              (conv): Conv1d(768, 768, kernel_size=(1,), stride=(1,))\n            )\n          )\n        )\n      )\n      (2): Qwen3OmniMoeCode2WavDecoderBlock(\n        (block): ModuleList(\n          (0): SnakeBeta()\n          (1): Qwen3OmniMoeCausalTransConvNet(\n            (conv): ConvTranspose1d(768, 384, kernel_size=(10,), stride=(5,))\n          )\n          (2): Qwen3OmniMoeCode2WavDecoderResidualUnit(\n            (act1): SnakeBeta()\n            (conv1): Qwen3OmniMoeCausalConvNet(\n              (conv): Conv1d(384, 384, kernel_size=(7,), stride=(1,))\n            )\n            (act2): SnakeBeta()\n            (conv2): Qwen3OmniMoeCausalConvNet(\n              (conv): Conv1d(384, 384, kernel_size=(1,), stride=(1,))\n            )\n          )\n          (3): Qwen3OmniMoeCode2WavDecoderResidualUnit(\n            (act1): SnakeBeta()\n            (conv1): Qwen3OmniMoeCausalConvNet(\n              (conv): Conv1d(384, 384, kernel_size=(7,), stride=(1,), dilation=(3,))\n            )\n            (act2): SnakeBeta()\n            (conv2): Qwen3OmniMoeCausalConvNet(\n              (conv): Conv1d(384, 384, kernel_size=(1,), stride=(1,))\n            )\n          )\n          (4): Qwen3OmniMoeCode2WavDecoderResidualUnit(\n            (act1): SnakeBeta()\n            (conv1): Qwen3OmniMoeCausalConvNet(\n              (conv): Conv1d(384, 384, kernel_size=(7,), stride=(1,), dilation=(9,))\n            )\n            (act2): SnakeBeta()\n            (conv2): Qwen3OmniMoeCausalConvNet(\n              (conv): Conv1d(384, 384, kernel_size=(1,), stride=(1,))\n            )\n          )\n        )\n      )\n      (3): Qwen3OmniMoeCode2WavDecoderBlock(\n        (block): ModuleList(\n          (0): SnakeBeta()\n          (1): Qwen3OmniMoeCausalTransConvNet(\n            (conv): ConvTranspose1d(384, 192, kernel_size=(8,), stride=(4,))\n          )\n          (2): Qwen3OmniMoeCode2WavDecoderResidualUnit(\n            (act1): SnakeBeta()\n            (conv1): Qwen3OmniMoeCausalConvNet(\n              (conv): Conv1d(192, 192, kernel_size=(7,), stride=(1,))\n            )\n            (act2): SnakeBeta()\n            (conv2): Qwen3OmniMoeCausalConvNet(\n              (conv): Conv1d(192, 192, kernel_size=(1,), stride=(1,))\n            )\n          )\n          (3): Qwen3OmniMoeCode2WavDecoderResidualUnit(\n            (act1): SnakeBeta()\n            (conv1): Qwen3OmniMoeCausalConvNet(\n              (conv): Conv1d(192, 192, kernel_size=(7,), stride=(1,), dilation=(3,))\n            )\n            (act2): SnakeBeta()\n            (conv2): Qwen3OmniMoeCausalConvNet(\n              (conv): Conv1d(192, 192, kernel_size=(1,), stride=(1,))\n            )\n          )\n          (4): Qwen3OmniMoeCode2WavDecoderResidualUnit(\n            (act1): SnakeBeta()\n            (conv1): Qwen3OmniMoeCausalConvNet(\n              (conv): Conv1d(192, 192, kernel_size=(7,), stride=(1,), dilation=(9,))\n            )\n            (act2): SnakeBeta()\n            (conv2): Qwen3OmniMoeCausalConvNet(\n              (conv): Conv1d(192, 192, kernel_size=(1,), stride=(1,))\n            )\n          )\n        )\n      )\n      (4): Qwen3OmniMoeCode2WavDecoderBlock(\n        (block): ModuleList(\n          (0): SnakeBeta()\n          (1): Qwen3OmniMoeCausalTransConvNet(\n            (conv): ConvTranspose1d(192, 96, kernel_size=(6,), stride=(3,))\n          )\n          (2): Qwen3OmniMoeCode2WavDecoderResidualUnit(\n            (act1): SnakeBeta()\n            (conv1): Qwen3OmniMoeCausalConvNet(\n              (conv): Conv1d(96, 96, kernel_size=(7,), stride=(1,))\n            )\n            (act2): SnakeBeta()\n            (conv2): Qwen3OmniMoeCausalConvNet(\n              (conv): Conv1d(96, 96, kernel_size=(1,), stride=(1,))\n            )\n          )\n          (3): Qwen3OmniMoeCode2WavDecoderResidualUnit(\n            (act1): SnakeBeta()\n            (conv1): Qwen3OmniMoeCausalConvNet(\n              (conv): Conv1d(96, 96, kernel_size=(7,), stride=(1,), dilation=(3,))\n            )\n            (act2): SnakeBeta()\n            (conv2): Qwen3OmniMoeCausalConvNet(\n              (conv): Conv1d(96, 96, kernel_size=(1,), stride=(1,))\n            )\n          )\n          (4): Qwen3OmniMoeCode2WavDecoderResidualUnit(\n            (act1): SnakeBeta()\n            (conv1): Qwen3OmniMoeCausalConvNet(\n              (conv): Conv1d(96, 96, kernel_size=(7,), stride=(1,), dilation=(9,))\n            )\n            (act2): SnakeBeta()\n            (conv2): Qwen3OmniMoeCausalConvNet(\n              (conv): Conv1d(96, 96, kernel_size=(1,), stride=(1,))\n            )\n          )\n        )\n      )\n      (5): SnakeBeta()\n      (6): Qwen3OmniMoeCausalConvNet(\n        (conv): Conv1d(96, 1, kernel_size=(7,), stride=(1,))\n      )\n    )\n  )\n)>\nForward defined in: /root/.openclaw/workspace/quantized/runs/Intel_Qwen3-Omni-30B-A3B-Instruct-int4-AutoRound-W4A16-RTN/venv/lib/python3.12/site-packages/torch/nn/modules/module.py\nWarning: You are sending unauthenticated requests to the HF Hub. Please set a HF_TOKEN to enable higher rate limits and faster downloads.\n[transformers] 
…
output":54,"cacheRead":74784,"cacheWrite":0,"totalTokens":75553,"cost":{"input":0.00021449999999999998,"output":0.0000648,"cacheRead":0.004487039999999999,"cacheWrite":0,"total":0.004766339999999999}},"stopReason":"toolUse","timestamp":1779697865443,"responseId":"06633bcb7f8658e4d50e61e86a9f3c45"}}
{"type":"message","id":"4161343d","parentId":"802b6460","timestamp":"2026-05-25T08:31:48.946Z","message":{"role":"toolResult","toolCallId":"call_function_zklinfnktopv_1","toolName":"process","content":[{"type":"text","text":"(rotary_emb): Qwen3OmniMoeThinkerTextRotaryEmbedding()\n    )\n    (lm_head): Linear(in_features=2048, out_features=152064, bias=False)\n  )\n  (talker): Qwen3OmniMoeTalkerForConditionalGeneration(\n    (model): Qwen3OmniMoeTalkerModel(\n      (layers): ModuleList(\n        (0-19): 20 x Qwen3OmniMoeTalkerDecoderLayer(\n          (self_attn): Qwen3OmniMoeThinkerTextAttention(\n            (q_proj): Linear(in_features=1024, out_features=2048, bias=False)\n            (k_proj): Linear(in_features=1024, out_features=256, bias=False)\n            (v_proj): Linear(in_features=1024, out_features=256, bias=False)\n            (o_proj): Linear(in_features=2048, out_features=1024, bias=False)\n            (q_norm): Qwen3OmniMoeThinkerTextRMSNorm((128,), eps=1e-06)\n            (k_norm): Qwen3OmniMoeThinkerTextRMSNorm((128,), eps=1e-06)\n          )\n          (mlp): LinearQwen3OmniTalkerSparseMoeBlock(\n            (gate): Qwen3OmniMoeTalkerTextTopKRouter()\n            (shared_expert): Qwen3OmniMoeTalkerTextMLP(\n              (gate_proj): Linear(in_features=1024, out_features=768, bias=False)\n              (up_proj): Linear(in_features=1024, out_features=768, bias=False)\n              (down_proj): Linear(in_features=768, out_features=1024, bias=False)\n              (act_fn): SiLUActivation()\n            )\n            (shared_expert_gate): Linear(in_features=1024, out_features=1, bias=False)\n            (experts): SequentialQwen3OmniTalkerExperts(\n              (0-127): 128 x Qwen3OmniMoeTalkerTextMLP(\n                (gate_proj): Linear(in_features=1024, out_features=384, bias=False)\n                (up_proj): Linear(in_features=1024, out_features=384, bias=False)\n                (down_proj): Linear(in_features=384, out_features=1024, bias=False)\n                (act_fn): SiLUActivation()\n              )\n            )\n          )\n          (input_layernorm): Qwen3OmniMoeThinkerTextRMSNorm((1024,), eps=1e-06)\n          (post_attention_layernorm): Qwen3OmniMoeThinkerTextRMSNorm((1024,), eps=1e-06)\n        )\n      )\n      (norm): Qwen3OmniMoeTextRMSNorm((1024,), eps=1e-06)\n      (rotary_emb): Qwen3OmniMoeTalkerRotaryEmbedding()\n      (codec_embedding): Embedding(3072, 1024)\n    )\n    (text_projection): Qwen3OmniMoeTalkerResizeMLP(\n      (linear_fc1): Linear(in_features=2048, out_features=2048, bias=True)\n      (linear_fc2): Linear(in_features=2048, out_features=1024, bias=True)\n      (act_fn): SiLUActivation()\n    )\n    (hidden_projection): Qwen3OmniMoeTalkerResizeMLP(\n      (linear_fc1): Linear(in_features=2048, out_features=2048, bias=True)\n      (linear_fc2): Linear(in_features=2048, out_features=1024, bias=True)\n      (act_fn): SiLUActivation()\n    )\n    (codec_head): Linear(in_features=1024, out_features=3072, bias=False)\n    (code_predictor): Qwen3OmniMoeTalkerCodePredictorModelForConditionalGeneration(\n      (model): Qwen3OmniMoeTalkerCodePredictorModel(\n        (layers): ModuleList(\n          (0-4): 5 x Qwen3OmniMoeTalkerCodePredictorDecoderLayer(\n            (self_attn): Qwen3OmniMoeTalkerCodePredictorAttention(\n              (q_proj): Linear(in_features=1024, out_features=2048, bias=False)\n              (k_proj): Linear(in_features=1024, out_features=1024, bias=False)\n              (v_proj): Linear(in_features=1024, out_features=1024, bias=False)\n              (o_proj): Linear(in_features=2048, out_features=1024, bias=False)\n              (q_norm): Qwen3OmniMoeRMSNorm((128,), eps=1e-06)\n              (k_norm): Qwen3OmniMoeRMSNorm((128,), eps=1e-06)\n            )\n            (mlp): Qwen3OmniMoeMLP(\n              (gate_proj): Linear(in_features=1024, out_features=3072, bias=False)\n              (up_proj): Linear(in_features=1024, out_features=3072, bias=False)\n              (down_proj): Linear(in_features=3072, out_features=1024, bias=False)\n              (act_fn): SiLUActivation()\n            )\n            (input_layernorm): Qwen3OmniMoeRMSNorm((1024,), eps=1e-06)\n            (post_attention_layernorm): Qwen3OmniMoeRMSNorm((1024,), eps=1e-06)\n          )\n        )\n        (norm): Qwen3OmniMoeRMSNorm((1024,), eps=1e-06)\n        (rotary_emb): Qwen3OmniMoeRotaryEmbedding()\n        (codec_embedding): ModuleList(\n          (0-14): 15 x Embedding(2048, 1024)\n        )\n      )\n      (lm_head): ModuleList(\n        (0-14): 15 x Linear(in_features=1024, out_features=2048, bias=False)\n      )\n    )\n  )\n  (code2wav): Qwen3OmniMoeCode2Wav(\n    (pre_transformer): Qwen3OmniMoeCode2WavTransformerModel(\n      (layers): ModuleList(\n        (0-7): 8 x Qwen3OmniMoeCode2WavTransformerLayer(\n          (self_attn): Qwen3OmniMoeCode2WavAttention(\n            (q_proj): Linear(in_features=1024, out_features=1024, bias=False)\n            (k_proj): Linear(in_features=1024, out_features=1024, bias=False)\n            (v_proj): Linear(in_features=1024, out_features=1024, bias=False)\n            (o_proj): Linear(in_features=1024, out_features=1024, bias=False)\n            (q_norm): Identity()\n            (k_norm): Identity()\n          )\n          (mlp): Qwen3OmniMoeCode2WavMlp(\n            (gate_proj): Linear(in_features=1024, out_features=3072, bias=False)\n            (up_proj): Linear(in_features=1024, out_features=3072, bias=False)\n            (down_proj): Linear(in_features=3072, out_features=1024, bias=False)\n            (act_fn): SiLUActivation()\n          )\n          (input_layernorm): Qwen3OmniMoeCode2WavRMSNorm((1024,), eps=1e-05)\n          (post_attention_layernorm): Qwen3OmniMoeCode2WavRMSNorm((1024,), eps=1e-05)\n          (self_attn_layer_scale): Qwen3OmniMoeCode2WavLayerScale()\n          (mlp_layer_scale): Qwen3OmniMoeCode2WavLayerScale()\n        )\n      )\n      (norm): Qwen3OmniMoeRMSNorm((1024,), eps=1e-05)\n      (rotary_emb): Qwen3OmniMoeRotaryEmbedding()\n    )\n    (code_embedding): Embedding(32768, 1024)\n    (upsample): ModuleList(\n      (0-1): 2 x ModuleList(\n        (0): Qwen3OmniMoeCausalTransConvNet(\n          (conv): ConvTranspose1d(1024, 1024, kernel_size=(2,), stride=(2,))\n        )\n        (1): Qwen3OmniMoeConvNeXtBlock(\n          (dwconv): Qwen3OmniMoeCausalConvNet(\n            (conv): Conv1d(1024, 1024, kernel_size=(7,), stride=(1,), groups=1024)\n          )\n          (norm): LayerNorm((1024,), eps=1e-06, elementwise_affine=True)\n          (pwconv1): Linear(in_features=1024, out_features=4096, bias=True)\n          (act): GELU(approximate='none')\n          (pwconv2): Linear(in_features=4096, out_features=1024, bias=True)\n        )\n      )\n    )\n    (decoder): ModuleList(\n      (0): Qwen3OmniMoeCausalConvNet(\n        (conv): Conv1d(1024, 1536, kernel_size=(7,), stride=(1,))\n      )\n      (1): Qwen3OmniMoeCode2WavDecoderBlock(\n        (block): ModuleList(\n          (0): SnakeBeta()\n          (1): Qwen3OmniMoeCausalTransConvNet(\n            (conv): ConvTranspose1d(1536, 768, kernel_size=(16,), stride=(8,))\n          )\n          (2): Qwen3OmniMoeCode2WavDecoderResidualUnit(\n            (act1): SnakeBeta()\n            (conv1): Qwen3OmniMoeCausalConvNet(\n              (conv): Conv1d(768, 768, kernel_size=(7,), stride=(1,))\n            )\n            (act2): SnakeBeta()\n            (conv2): Qwen3OmniMoeCausalConvNet(\n              (conv): Conv1d(768, 768, kernel_size=(1,), stride=(1,))\n            )\n          )\n          (3): Qwen3OmniMoeCode2WavDecoderResidualUnit(\n            (act1): SnakeBeta()\n            (conv1): Qwen3OmniMoeCausalConvNet(\n              (conv): Conv1d(768, 768, kernel_size=(7,), stride=(1,), dilation=(3,))\n            )\n            (act2): SnakeBeta()\n            (conv2): Qwen3OmniMoeCausalConvNet(\n              (conv): Conv1d(768, 768, kernel_size=(1,), stride=(1,))\n            )\n          )\n          (4): Qwen3OmniMoeCode2WavDecoderResidualUnit(\n            (act1): SnakeBeta()\n            (conv1): Qwen3OmniMoeCausalConvNet(\n              (conv): Conv1d(768, 768, kernel_size=(7,), stride=(1,), dilation=(9,))\n            )\n            (act2): SnakeBeta()\n            (conv2): Qwen3OmniMoeCausalConvNet(\n              (conv): Conv1d(768, 768, kernel_size=(1,), stride=(1,))\n            )\n          )\n        )\n      )\n      (2): Qwen3OmniMoeCode2WavDecoderBlock(\n        (block): ModuleList(\n          (0): SnakeBeta()\n          (1): Qwen3OmniMoeCausalTransConvNet(\n            (conv): ConvTranspose1d(768, 384, kernel_size=(10,), stride=(5,))\n          )\n          (2): Qwen3OmniMoeCode2WavDecoderResidualUnit(\n            (act1): SnakeBeta()\n            (conv1): Qwen3OmniMoeCausalConvNet(\n              (conv): Conv1d(384, 384, kernel_size=(7,), stride=(1,))\n            )\n            (act2): SnakeBeta()\n            (conv2): Qwen3OmniMoeCausalConvNet(\n              (conv): Conv1d(384, 384, kernel_size=(1,), stride=(1,))\n            )\n          )\n          (3): Qwen3OmniMoeCode2WavDecoderResidualUnit(\n            (act1): SnakeBeta()\n            (conv1): Qwen3OmniMoeCausalConvNet(\n              (conv): Conv1d(384, 384, kernel_size=(7,), stride=(1,), dilation=(3,))\n            )\n            (act2): SnakeBeta()\n            (conv2): Qwen3OmniMoeCausalConvNet(\n              (conv): Conv1d(384, 384, kernel_size=(1,), stride=(1,))\n            )\n          )\n          (4): Qwen3OmniMoeCode2WavDecoderResidualUnit(\n            (act1): SnakeBeta()\n            (conv1): Qwen3OmniMoeCausalConvNet(\n              (conv): Conv1d(384, 384, kernel_size=(7,), stride=(1,), dilation=(9,))\n            )\n            (act2): SnakeBeta()\n            (conv2): Qwen3OmniMoeCausalConvNet(\n              (conv): Conv1d(384, 384, kernel_size=(1,), stride=(1,))\n            )\n          )\n        )\n      )\n      (3): Qwen3OmniMoeCode2WavDecoderBlock(\n        (block): ModuleList(\n          (0): SnakeBeta()\n          (1): Qwen3OmniMoeCausalTransConvNet(\n            (conv): ConvTranspose1d(384, 192, kernel_size=(8,), stride=(4,))\n          )\n          (2): Qwen3OmniMoeCode2WavDecoderResidualUnit(\n            (act1): SnakeBeta()\n            (conv1): Qwen3OmniMoeCausalConvNet(\n              (conv): Conv1d(192, 192, kernel_size=(7,), stride=(1,))\n            )\n            (act2): SnakeBeta()\n            (conv2): Qwen3OmniMoeCausalConvNet(\n              (conv): Conv1d(192, 192, kernel_size=(1,), stride=(1,))\n            )\n          )\n          (3): Qwen3OmniMoeCode2WavDecoderResidualUnit(\n            (act1): SnakeBeta()\n            (conv1): Qwen3OmniMoeCausalConvNet(\n              (conv): Conv1d(192, 192, kernel_size=(7,), stride=(1,), dilation=(3,))\n            )\n            (act2): SnakeBeta()\n            (conv2): Qwen3OmniMoeCausalConvNet(\n              (conv): Conv1d(192, 192, kernel_size=(1,), stride=(1,))\n            )\n          )\n          (4): Qwen3OmniMoeCode2WavDecoderResidualUnit(\n            (act1): SnakeBeta()\n            (conv1): Qwen3OmniMoeCausalConvNet(\n              (conv): Conv1d(192, 192, kernel_size=(7,), stride=(1,), dilation=(9,))\n            )\n            (act2): SnakeBeta()\n            (conv2): Qwen3OmniMoeCausalConvNet(\n              (conv): Conv1d(192, 192, kernel_size=(1,), stride=(1,))\n            )\n          )\n        )\n      )\n      (4): Qwen3OmniMoeCode2WavDecoderBlock(\n        (block): ModuleList(\n          (0): SnakeBeta()\n          (1): Qwen3OmniMoeCausalTransConvNet(\n            (conv): ConvTranspose1d(192, 96, kernel_size=(6,), stride=(3,))\n          )\n          (2): Qwen3OmniMoeCode2WavDecoderResidualUnit(\n            (act1): SnakeBeta()\n            (conv1): Qwen3OmniMoeCausalConvNet(\n              (conv): Conv1d(96, 96, kernel_size=(7,), stride=(1,))\n            )\n            (act2): SnakeBeta()\n            (conv2): Qwen3OmniMoeCausalConvNet(\n              (conv): Conv1d(96, 96, kernel_size=(1,), stride=(1,))\n            )\n          )\n          (3): Qwen3OmniMoeCode2WavDecoderResidualUnit(\n            (act1): SnakeBeta()\n            (conv1): Qwen3OmniMoeCausalConvNet(\n              (conv): Conv1d(96, 96, kernel_size=(7,), stride=(1,), dilation=(3,))\n            )\n            (act2): SnakeBeta()\n            (conv2): Qwen3OmniMoeCausalConvNet(\n              (conv): Conv1d(96, 96, kernel_size=(1,), stride=(1,))\n            )\n          )\n          (4): Qwen3OmniMoeCode2WavDecoderResidualUnit(\n            (act1): SnakeBeta()\n            (conv1): Qwen3OmniMoeCausalConvNet(\n              (conv): Conv1d(96, 96, kernel_size=(7,), stride=(1,), dilation=(9,))\n            )\n            (act2): SnakeBeta()\n            (conv2): Qwen3OmniMoeCausalConvNet(\n              (conv): Conv1d(96, 96, kernel_size=(1,), stride=(1,))\n            )\n          )\n        )\n      )\n      (5): SnakeBeta()\n      (6): Qwen3OmniMoeCausalConvNet(\n        (conv): Conv1d(96, 1, kernel_size=(7,), stride=(1,))\n      )\n    )\n  )\n)>\n\nApplying patches...\nPatches applied\n\nAFTER patches:\n  model.__class__.forward: <function _forward_unimplemented at 0x7217ddba27a0>\n  'forward' in model.__class__.__dict__: False\n  model.forward: <bound method _forward_unimplemented of Qwen3OmniMoeForConditionalGeneration(\n  (thinker): Qwen3OmniMoeThinkerForConditionalGeneration(\n    (audio_tower): Qwen3OmniMoeAudioEncoder(\n      (positional_embedding): SinusoidsPositionEmbedding()\n      (layers): ModuleList(\n        (0-31): 32 x Qwen3OmniMoeAudioEncoderLayer(\n          (self_attn): Qwen3OmniMoeAudioAttention(\n            (k_proj): Linear(in_features=1280, out_features=1280, bias=True)\n            (v_proj): Linear(in_features=1280, out_features=1280, bias=True)\n            (q_proj): Linear(in_features=1280, out_features=1280, bias=True)\n            (out_proj): Linear(in_features=1280, out_features=1280, bias=True)\n          )\n          (self_attn_layer_norm): LayerNorm((1280,), eps=1e-05, elementwise_affine=True)\n          (activation_fn): GELUActivation()\n          (fc1): Linear(in_features=1280, out_features=5120, bias=True)\n          (fc2): Linear(in_features=5120, out_features=1280, bias=True)\n          (final_layer_norm): LayerNorm((1280,), eps=1e-05, elementwise_affine=True)\n        )\n      )\n      (ln_post): LayerNorm((1280,), eps=1e-05, elementwise_affine=True)\n      (conv2d1): Conv2d(1, 480, kernel_size=(3, 3), stride=(2, 2), padding=(1, 1))\n      (conv2d2): Conv2d(480, 480, kernel_size=(3, 3), stride=(2, 2), padding=(1, 1))\n      (conv2d3): Conv2d(480, 480, kernel_size=(3, 3), stride=(2, 2), padding=(1, 1))\n      (conv_out): Linear(in_features=7680, out_features=1280, bias=False)\n      (proj1): Linear(in_features=1280, out_features=1280, bias=True)\n      (act): GELUActivation()\n      (proj2): Linear(in_features=1280, out_features=2048, bias=True)\n    )\n    (visual): Qwen3OmniMoeVisionEncoder(\n      (merger_list): ModuleList(\n        (0-2): 3 x Qwen3OmniMoeVisionPatchMerger(\n          (ln_q): LayerNorm((4608,), eps=1e-06, elementwise_affine=True)\n          (mlp): ModuleList(\n            (0): Linear(in_features=4608, out_features=4608, bias=True)\n            (1): GELU(approximate='none')\n            (2): Linear(in_features=4608, out_features=2048, bias=True)\n          )\n        )\n      )\n      (patch_embed): Qwen3OmniMoeVisionPatchEmbed(\n        (proj): Conv3d(3, 1152, kernel_size=(2, 16, 16), stride=(2, 16, 16))\n      )\n      (pos_embed): Embedding(2304, 1152)\n      (rotary_pos_emb): Qwen3OmniMoeVisionRotaryEmbedding()\n      (blocks): ModuleList(\n        (0-26): 27 x Qwen3OmniMoeVisionBlock(\n          (norm1): LayerNorm((1152,), eps=1e-06, elementwise_affine=True)\n          (norm2): LayerNorm((1152,), eps=1e-06, elementwise_affine=True)\n          (attn): Qwen3OmniMoeVisionAttention(\n            (qkv): Linear(in_features=1152, out_features=3456, bias=True)\n            (proj): Linear(in_features=1152, out_features=1152, bias=True)\n          )\n          (mlp): Qwen3OmniMoeVisionMLP(\n            (linear_fc1): Linear(in_features=1152, out_features=4304, bias=True)\n            (linear_fc2): Linear(in_features=4304, out_features=1152, bias=True)\n            (act_fn): GELUTanh()\n          )\n        )\n      )\n      (merger): Qwen3OmniMoeVisionPatchMerger(\n        (ln_q): LayerNorm((1152,), eps=1e-06, elementwise_affine=True)\n        (mlp): ModuleList(\n          (0): Linear(in_features=4608, out_features=4608, bias=True)\n          (1): GELU(approximate='none')\n          (2): Linear(in_features=4608, out_features=2048, bias=True)\n        )\n      )\n    )\n    (model): Qwen3OmniMoeThinkerTextModel(\n      (embed_tokens): Embedding(152064, 2048)\n      (layers): ModuleList(\n        (0-47): 48 x Qwen3OmniMoeThinkerTextDecoderLayer(\n          (self_attn): Qwen3OmniMoeThinkerTextAttention(\n            (q_proj): QuantLinear()\n            (k_proj): QuantLinear()\n            (v_proj): QuantLinear()\n            (o_proj): QuantLinear()\n            (q_norm): Qwen3OmniMoeThinkerTextRMSNorm((128,), eps=1e-06)\n            (k_nor
…
      (0-127): 128 x Qwen3OmniMoeThinkerTextMLP(\n                (gate_proj): QuantLinear()\n                (up_proj): QuantLinear()\n                (down_proj): QuantLinear()\n                (act_fn): SiLUActivation()\n              )\n            )\n          )\n          (input_layernorm): Qwen3OmniMoeThinkerTextRMSNorm((2048,), eps=1e-06)\n          (post_attention_layernorm): Qwen3OmniMoeThinkerTextRMSNorm((2048,), eps=1e-06)\n        )\n      )\n      (norm): Qwen3OmniMoeTextRMSNorm((2048,), eps=1e-06)\n      (rotary_emb): Qwen3OmniMoeThinkerTextRotaryEmbedding()\n    )\n    (lm_head): Linear(in_features=2048, out_features=152064, bias=False)\n  )\n  (talker): Qwen3OmniMoeTalkerForConditionalGeneration(\n    (model): Qwen3OmniMoeTalkerModel(\n      (layers): ModuleList(\n        (0-19): 20 x Qwen3OmniMoeTalkerDecoderLayer(\n          (self_attn): Qwen3OmniMoeThinkerTextAttention(\n            (q_proj): Linear(in_features=1024, out_features=2048, bias=False)\n            (k_proj): Linear(in_features=1024, out_features=256, bias=False)\n            (v_proj): Linear(in_features=1024, out_features=256, bias=False)\n            (o_proj): Linear(in_features=2048, out_features=1024, bias=False)\n            (q_norm): Qwen3OmniMoeThinkerTextRMSNorm((128,), eps=1e-06)\n            (k_norm): Qwen3OmniMoeThinkerTextRMSNorm((128,), eps=1e-06)\n          )\n          (mlp): LinearQwen3OmniTalkerSparseMoeBlock(\n            (gate): Qwen3OmniMoeTalkerTextTopKRouter()\n            (shared_expert): Qwen3OmniMoeTalkerTextMLP(\n              (gate_proj): Linear(in_features=1024, out_features=768, bias=False)\n              (up_proj): Linear(in_features=1024, out_features=768, bias=False)\n              (down_proj): Linear(in_features=768, out_features=1024, bias=False)\n              (act_fn): SiLUActivation()\n            )\n            (shared_expert_gate): Linear(in_features=1024, out_features=1, bias=False)\n            (experts): SequentialQwen3OmniTalkerExperts(\n              (0-127): 128 x Qwen3OmniMoeTalkerTextMLP(\n                (gate_proj): Linear(in_features=1024, out_features=384, bias=False)\n                (up_proj): Linear(in_features=1024, out_features=384, bias=False)\n                (down_proj): Linear(in_features=384, out_features=1024, bias=False)\n                (act_fn): SiLUActivation()\n              )\n            )\n          )\n          (input_layernorm): Qwen3OmniMoeThinkerTextRMSNorm((1024,), eps=1e-06)\n          (post_attention_layernorm): Qwen3OmniMoeThinkerTextRMSNorm((1024,), eps=1e-06)\n        )\n      )\n      (norm): Qwen3OmniMoeTextRMSNorm((1024,), eps=1e-06)\n      (rotary_emb): Qwen3OmniMoeTalkerRotaryEmbedding()\n      (codec_embedding): Embedding(3072, 1024)\n    )\n    (text_projection): Qwen3OmniMoeTalkerResizeMLP(\n      (linear_fc1): Linear(in_features=2048, out_features=2048, bias=True)\n      (linear_fc2): Linear(in_features=2048, out_features=1024, bias=True)\n      (act_fn): SiLUActivation()\n    )\n    (hidden_projection): Qwen3OmniMoeTalkerResizeMLP(\n      (linear_fc1): Linear(in_features=2048, out_features=2048, bias=True)\n      (linear_fc2): Linear(in_features=2048, out_features=1024, bias=True)\n      (act_fn): SiLUActivation()\n    )\n    (codec_head): Linear(in_features=1024, out_features=3072, bias=False)\n    (code_predictor): Qwen3OmniMoeTalkerCodePredictorModelForConditionalGeneration(\n      (model): Qwen3OmniMoeTalkerCodePredictorModel(\n        (layers): ModuleList(\n          (0-4): 5 x Qwen3OmniMoeTalkerCodePredictorDecoderLayer(\n            (self_attn): Qwen3OmniMoeTalkerCodePredictorAttention(\n              (q_proj): Linear(in_features=1024, out_features=2048, bias=False)\n              (k_proj): Linear(in_features=1024, out_features=1024, bias=False)\n              (v_proj): Linear(in_features=1024, out_features=1024, bias=False)\n              (o_proj): Linear(in_features=2048, out_features=1024, bias=False)\n              (q_norm): Qwen3OmniMoeRMSNorm((128,), eps=1e-06)\n              (k_norm): Qwen3OmniMoeRMSNorm((128,), eps=1e-06)\n            )\n            (mlp): Qwen3OmniMoeMLP(\n              (gate_proj): Linear(in_features=1024, out_features=3072, bias=False)\n              (up_proj): Linear(in_features=1024, out_features=3072, bias=False)\n              (down_proj): Linear(in_features=3072, out_features=1024, bias=False)\n              (act_fn): SiLUActivation()\n            )\n            (input_layernorm): Qwen3OmniMoeRMSNorm((1024,), eps=1e-06)\n            (post_attention_layernorm): Qwen3OmniMoeRMSNorm((1024,), eps=1e-06)\n          )\n        )\n        (norm): Qwen3OmniMoeRMSNorm((1024,), eps=1e-06)\n        (rotary_emb): Qwen3OmniMoeRotaryEmbedding()\n        (codec_embedding): ModuleList(\n          (0-14): 15 x Embedding(2048, 1024)\n        )\n      )\n      (lm_head): ModuleList(\n        (0-14): 15 x Linear(in_features=1024, out_features=2048, bias=False)\n      )\n    )\n  )\n  (code2wav): Qwen3OmniMoeCode2Wav(\n    (pre_transformer): Qwen3OmniMoeCode2WavTransformerModel(\n      (layers): ModuleList(\n        (0-7): 8 x Qwen3OmniMoeCode2WavTransformerLayer(\n          (self_attn): Qwen3OmniMoeCode2WavAttention(\n            (q_proj): Linear(in_features=1024, out_features=1024, bias=False)\n            (k_proj): Linear(in_features=1024, out_features=1024, bias=False)\n            (v_proj): Linear(in_features=1024, out_features=1024, bias=False)\n            (o_proj): Linear(in_features=1024, out_features=1024, bias=False)\n            (q_norm): Identity()\n            (k_norm): Identity()\n          )\n          (mlp): Qwen3OmniMoeCode2WavMlp(\n            (gate_proj): Linear(in_features=1024, out_features=3072, bias=False)\n            (up_proj): Linear(in_features=1024, out_features=3072, bias=False)\n            (down_proj): Linear(in_features=3072, out_features=1024, bias=False)\n            (act_fn): SiLUActivation()\n          )\n          (input_layernorm): Qwen3OmniMoeCode2WavRMSNorm((1024,), eps=1e-05)\n          (post_attention_layernorm): Qwen3OmniMoeCode2WavRMSNorm((1024,), eps=1e-05)\n          (self_attn_layer_scale): Qwen3OmniMoeCode2WavLayerScale()\n          (mlp_layer_scale): Qwen3OmniMoeCode2WavLayerScale()\n        )\n      )\n      (norm): Qwen3OmniMoeRMSNorm((1024,), eps=1e-05)\n      (rotary_emb): Qwen3OmniMoeRotaryEmbedding()\n    )\n    (code_embedding): Embedding(32768, 1024)\n    (upsample): ModuleList(\n      (0-1): 2 x ModuleList(\n        (0): Qwen3OmniMoeCausalTransConvNet(\n          (conv): ConvTranspose1d(1024, 1024, kernel_size=(2,), stride=(2,))\n        )\n        (1): Qwen3OmniMoeConvNeXtBlock(\n          (dwconv): Qwen3OmniMoeCausalConvNet(\n            (conv): Conv1d(1024, 1024, kernel_size=(7,), stride=(1,), groups=1024)\n          )\n          (norm): LayerNorm((1024,), eps=1e-06, elementwise_affine=True)\n          (pwconv1): Linear(in_features=1024, out_features=4096, bias=True)\n          (act): GELU(approximate='none')\n          (pwconv2): Linear(in_features=4096, out_features=1024, bias=True)\n        )\n      )\n    )\n    (decoder): ModuleList(\n      (0): Qwen3OmniMoeCausalConvNet(\n        (conv): Conv1d(1024, 1536, kernel_size=(7,), stride=(1,))\n      )\n      (1): Qwen3OmniMoeCode2WavDecoderBlock(\n        (block): ModuleList(\n          (0): SnakeBeta()\n          (1): Qwen3OmniMoeCausalTransConvNet(\n            (conv): ConvTranspose1d(1536, 768, kernel_size=(16,), stride=(8,))\n          )\n          (2): Qwen3OmniMoeCode2WavDecoderResidualUnit(\n            (act1): SnakeBeta()\n            (conv1): Qwen3OmniMoeCausalConvNet(\n              (conv): Conv1d(768, 768, kernel_size=(7,), stride=(1,))\n            )\n            (act2): SnakeBeta()\n            (conv2): Qwen3OmniMoeCausalConvNet(\n              (conv): Conv1d(768, 768, kernel_size=(1,), stride=(1,))\n            )\n          )\n          (3): Qwen3OmniMoeCode2WavDecoderResidualUnit(\n            (act1): SnakeBeta()\n            (conv1): Qwen3OmniMoeCausalConvNet(\n              (conv): Conv1d(768, 768, kernel_size=(7,), stride=(1,), dilation=(3,))\n            )\n            (act2): SnakeBeta()\n            (conv2): Qwen3OmniMoeCausalConvNet(\n              (conv): Conv1d(768, 768, kernel_size=(1,), stride=(1,))\n            )\n          )\n          (4): Qwen3OmniMoeCode2WavDecoderResidualUnit(\n            (act1): SnakeBeta()\n            (conv1): Qwen3OmniMoeCausalConvNet(\n              (conv): Conv1d(768, 768, kernel_size=(7,), stride=(1,), dilation=(9,))\n            )\n            (act2): SnakeBeta()\n            (conv2): Qwen3OmniMoeCausalConvNet(\n              (conv): Conv1d(768, 768, kernel_size=(1,), stride=(1,))\n            )\n          )\n        )\n      )\n      (2): Qwen3OmniMoeCode2WavDecoderBlock(\n        (block): ModuleList(\n          (0): SnakeBeta()\n          (1): Qwen3OmniMoeCausalTransConvNet(\n            (conv): ConvTranspose1d(768, 384, kernel_size=(10,), stride=(5,))\n          )\n          (2): Qwen3OmniMoeCode2WavDecoderResidualUnit(\n            (act1): SnakeBeta()\n            (conv1): Qwen3OmniMoeCausalConvNet(\n              (conv): Conv1d(384, 384, kernel_size=(7,), stride=(1,))\n            )\n            (act2): SnakeBeta()\n            (conv2): Qwen3OmniMoeCausalConvNet(\n              (conv): Conv1d(384, 384, kernel_size=(1,), stride=(1,))\n            )\n          )\n          (3): Qwen3OmniMoeCode2WavDecoderResidualUnit(\n            (act1): SnakeBeta()\n            (conv1): Qwen3OmniMoeCausalConvNet(\n              (conv): Conv1d(384, 384, kernel_size=(7,), stride=(1,), dilation=(3,))\n            )\n            (act2): SnakeBeta()\n            (conv2): Qwen3OmniMoeCausalConvNet(\n              (conv): Conv1d(384, 384, kernel_size=(1,), stride=(1,))\n            )\n          )\n          (4): Qwen3OmniMoeCode2WavDecoderResidualUnit(\n            (act1): SnakeBeta()\n            (conv1): Qwen3OmniMoeCausalConvNet(\n              (conv): Conv1d(384, 384, kernel_size=(7,), stride=(1,), dilation=(9,))\n            )\n            (act2): SnakeBeta()\n            (conv2): Qwen3OmniMoeCausalConvNet(\n              (conv): Conv1d(384, 384, kernel_size=(1,), stride=(1,))\n            )\n          )\n        )\n      )\n      (3): Qwen3OmniMoeCode2WavDecoderBlock(\n        (block): ModuleList(\n          (0): SnakeBeta()\n          (1): Qwen3OmniMoeCausalTransConvNet(\n            (conv): ConvTranspose1d(384, 192, kernel_size=(8,), stride=(4,))\n          )\n          (2): Qwen3OmniMoeCode2WavDecoderResidualUnit(\n            (act1): SnakeBeta()\n            (conv1): Qwen3OmniMoeCausalConvNet(\n              (conv): Conv1d(192, 192, kernel_size=(7,), stride=(1,))\n            )\n            (act2): SnakeBeta()\n            (conv2): Qwen3OmniMoeCausalConvNet(\n              (conv): Conv1d(192, 192, kernel_size=(1,), stride=(1,))\n            )\n          )\n          (3): Qwen3OmniMoeCode2WavDecoderResidualUnit(\n            (act1): SnakeBeta()\n            (conv1): Qwen3OmniMoeCausalConvNet(\n              (conv): Conv1d(192, 192, kernel_size=(7,), stride=(1,), dilation=(3,))\n            )\n            (act2): SnakeBeta()\n            (conv2): Qwen3OmniMoeCausalConvNet(\n              (conv): Conv1d(192, 192, kernel_size=(1,), stride=(1,))\n            )\n          )\n          (4): Qwen3OmniMoeCode2WavDecoderResidualUnit(\n            (act1): SnakeBeta()\n            (conv1): Qwen3OmniMoeCausalConvNet(\n              (conv): Conv1d(192, 192, kernel_size=(7,), stride=(1,), dilation=(9,))\n            )\n            (act2): SnakeBeta()\n            (conv2): Qwen3OmniMoeCausalConvNet(\n              (conv): Conv1d(192, 192, kernel_size=(1,), stride=(1,))\n            )\n          )\n        )\n      )\n      (4): Qwen3OmniMoeCode2WavDecoderBlock(\n        (block): ModuleList(\n          (0): SnakeBeta()\n          (1): Qwen3OmniMoeCausalTransConvNet(\n            (conv): ConvTranspose1d(192, 96, kernel_size=(6,), stride=(3,))\n          )\n          (2): Qwen3OmniMoeCode2WavDecoderResidualUnit(\n            (act1): SnakeBeta()\n            (conv1): Qwen3OmniMoeCausalConvNet(\n              (conv): Conv1d(96, 96, kernel_size=(7,), stride=(1,))\n            )\n            (act2): SnakeBeta()\n            (conv2): Qwen3OmniMoeCausalConvNet(\n              (conv): Conv1d(96, 96, kernel_size=(1,), stride=(1,))\n            )\n          )\n          (3): Qwen3OmniMoeCode2WavDecoderResidualUnit(\n            (act1): SnakeBeta()\n            (conv1): Qwen3OmniMoeCausalConvNet(\n              (conv): Conv1d(96, 96, kernel_size=(7,), stride=(1,), dilation=(3,))\n            )\n            (act2): SnakeBeta()\n            (conv2): Qwen3OmniMoeCausalConvNet(\n              (conv): Conv1d(96, 96, kernel_size=(1,), stride=(1,))\n            )\n          )\n          (4): Qwen3OmniMoeCode2WavDecoderResidualUnit(\n            (act1): SnakeBeta()\n            (conv1): Qwen3OmniMoeCausalConvNet(\n              (conv): Conv1d(96, 96, kernel_size=(7,), stride=(1,), dilation=(9,))\n            )\n            (act2): SnakeBeta()\n            (conv2): Qwen3OmniMoeCausalConvNet(\n              (conv): Conv1d(96, 96, kernel_size=(1,), stride=(1,))\n            )\n          )\n        )\n      )\n      (5): SnakeBeta()\n      (6): Qwen3OmniMoeCausalConvNet(\n        (conv): Conv1d(96, 1, kernel_size=(7,), stride=(1,))\n      )\n    )\n  )\n)>\nWarning: You are sending unauthenticated requests to the HF Hub. Please set a HF_TOKEN to enable higher rate limits and faster downloads.\n[transformers] Unrecognized keys in `rope_parameters` for 'rope_type'='default': {'mrope_section', 'interleaved'}\n[38;20m2026-05-25 08:31:02 INFO replace_modules.py L107: Experts (before replaceme
…
      (0-127): 128 x Qwen3OmniMoeThinkerTextMLP(\n                (gate_proj): QuantLinear()\n                (up_proj): QuantLinear()\n                (down_proj): QuantLinear()\n                (act_fn): SiLUActivation()\n              )\n            )\n          )\n          (input_layernorm): Qwen3OmniMoeThinkerTextRMSNorm((2048,), eps=1e-06)\n          (post_attention_layernorm): Qwen3OmniMoeThinkerTextRMSNorm((2048,), eps=1e-06)\n        )\n      )\n      (norm): Qwen3OmniMoeTextRMSNorm((2048,), eps=1e-06)\n      (rotary_emb): Qwen3OmniMoeThinkerTextRotaryEmbedding()\n    )\n    (lm_head): Linear(in_features=2048, out_features=152064, bias=False)\n  )\n  (talker): Qwen3OmniMoeTalkerForConditionalGeneration(\n    (model): Qwen3OmniMoeTalkerModel(\n      (layers): ModuleList(\n        (0-19): 20 x Qwen3OmniMoeTalkerDecoderLayer(\n          (self_attn): Qwen3OmniMoeThinkerTextAttention(\n            (q_proj): Linear(in_features=1024, out_features=2048, bias=False)\n            (k_proj): Linear(in_features=1024, out_features=256, bias=False)\n            (v_proj): Linear(in_features=1024, out_features=256, bias=False)\n            (o_proj): Linear(in_features=2048, out_features=1024, bias=False)\n            (q_norm): Qwen3OmniMoeThinkerTextRMSNorm((128,), eps=1e-06)\n            (k_norm): Qwen3OmniMoeThinkerTextRMSNorm((128,), eps=1e-06)\n          )\n          (mlp): LinearQwen3OmniTalkerSparseMoeBlock(\n            (gate): Qwen3OmniMoeTalkerTextTopKRouter()\n            (shared_expert): Qwen3OmniMoeTalkerTextMLP(\n              (gate_proj): Linear(in_features=1024, out_features=768, bias=False)\n              (up_proj): Linear(in_features=1024, out_features=768, bias=False)\n              (down_proj): Linear(in_features=768, out_features=1024, bias=False)\n              (act_fn): SiLUActivation()\n            )\n            (shared_expert_gate): Linear(in_features=1024, out_features=1, bias=False)\n            (experts): SequentialQwen3OmniTalkerExperts(\n              (0-127): 128 x Qwen3OmniMoeTalkerTextMLP(\n                (gate_proj): Linear(in_features=1024, out_features=384, bias=False)\n                (up_proj): Linear(in_features=1024, out_features=384, bias=False)\n                (down_proj): Linear(in_features=384, out_features=1024, bias=False)\n                (act_fn): SiLUActivation()\n              )\n            )\n          )\n          (input_layernorm): Qwen3OmniMoeThinkerTextRMSNorm((1024,), eps=1e-06)\n          (post_attention_layernorm): Qwen3OmniMoeThinkerTextRMSNorm((1024,), eps=1e-06)\n        )\n      )\n      (norm): Qwen3OmniMoeTextRMSNorm((1024,), eps=1e-06)\n      (rotary_emb): Qwen3OmniMoeTalkerRotaryEmbedding()\n      (codec_embedding): Embedding(3072, 1024)\n    )\n    (text_projection): Qwen3OmniMoeTalkerResizeMLP(\n      (linear_fc1): Linear(in_features=2048, out_features=2048, bias=True)\n      (linear_fc2): Linear(in_features=2048, out_features=1024, bias=True)\n      (act_fn): SiLUActivation()\n    )\n    (hidden_projection): Qwen3OmniMoeTalkerResizeMLP(\n      (linear_fc1): Linear(in_features=2048, out_features=2048, bias=True)\n      (linear_fc2): Linear(in_features=2048, out_features=1024, bias=True)\n      (act_fn): SiLUActivation()\n    )\n    (codec_head): Linear(in_features=1024, out_features=3072, bias=False)\n    (code_predictor): Qwen3OmniMoeTalkerCodePredictorModelForConditionalGeneration(\n      (model): Qwen3OmniMoeTalkerCodePredictorModel(\n        (layers): ModuleList(\n          (0-4): 5 x Qwen3OmniMoeTalkerCodePredictorDecoderLayer(\n            (self_attn): Qwen3OmniMoeTalkerCodePredictorAttention(\n              (q_proj): Linear(in_features=1024, out_features=2048, bias=False)\n              (k_proj): Linear(in_features=1024, out_features=1024, bias=False)\n              (v_proj): Linear(in_features=1024, out_features=1024, bias=False)\n              (o_proj): Linear(in_features=2048, out_features=1024, bias=False)\n              (q_norm): Qwen3OmniMoeRMSNorm((128,), eps=1e-06)\n              (k_norm): Qwen3OmniMoeRMSNorm((128,), eps=1e-06)\n            )\n            (mlp): Qwen3OmniMoeMLP(\n              (gate_proj): Linear(in_features=1024, out_features=3072, bias=False)\n              (up_proj): Linear(in_features=1024, out_features=3072, bias=False)\n              (down_proj): Linear(in_features=3072, out_features=1024, bias=False)\n              (act_fn): SiLUActivation()\n            )\n            (input_layernorm): Qwen3OmniMoeRMSNorm((1024,), eps=1e-06)\n            (post_attention_layernorm): Qwen3OmniMoeRMSNorm((1024,), eps=1e-06)\n          )\n        )\n        (norm): Qwen3OmniMoeRMSNorm((1024,), eps=1e-06)\n        (rotary_emb): Qwen3OmniMoeRotaryEmbedding()\n        (codec_embedding): ModuleList(\n          (0-14): 15 x Embedding(2048, 1024)\n        )\n      )\n      (lm_head): ModuleList(\n        (0-14): 15 x Linear(in_features=1024, out_features=2048, bias=False)\n      )\n    )\n  )\n  (code2wav): Qwen3OmniMoeCode2Wav(\n    (pre_transformer): Qwen3OmniMoeCode2WavTransformerModel(\n      (layers): ModuleList(\n        (0-7): 8 x Qwen3OmniMoeCode2WavTransformerLayer(\n          (self_attn): Qwen3OmniMoeCode2WavAttention(\n            (q_proj): Linear(in_features=1024, out_features=1024, bias=False)\n            (k_proj): Linear(in_features=1024, out_features=1024, bias=False)\n            (v_proj): Linear(in_features=1024, out_features=1024, bias=False)\n            (o_proj): Linear(in_features=1024, out_features=1024, bias=False)\n            (q_norm): Identity()\n            (k_norm): Identity()\n          )\n          (mlp): Qwen3OmniMoeCode2WavMlp(\n            (gate_proj): Linear(in_features=1024, out_features=3072, bias=False)\n            (up_proj): Linear(in_features=1024, out_features=3072, bias=False)\n            (down_proj): Linear(in_features=3072, out_features=1024, bias=False)\n            (act_fn): SiLUActivation()\n          )\n          (input_layernorm): Qwen3OmniMoeCode2WavRMSNorm((1024,), eps=1e-05)\n          (post_attention_layernorm): Qwen3OmniMoeCode2WavRMSNorm((1024,), eps=1e-05)\n          (self_attn_layer_scale): Qwen3OmniMoeCode2WavLayerScale()\n          (mlp_layer_scale): Qwen3OmniMoeCode2WavLayerScale()\n        )\n      )\n      (norm): Qwen3OmniMoeRMSNorm((1024,), eps=1e-05)\n      (rotary_emb): Qwen3OmniMoeRotaryEmbedding()\n    )\n    (code_embedding): Embedding(32768, 1024)\n    (upsample): ModuleList(\n      (0-1): 2 x ModuleList(\n        (0): Qwen3OmniMoeCausalTransConvNet(\n          (conv): ConvTranspose1d(1024, 1024, kernel_size=(2,), stride=(2,))\n        )\n        (1): Qwen3OmniMoeConvNeXtBlock(\n          (dwconv): Qwen3OmniMoeCausalConvNet(\n            (conv): Conv1d(1024, 1024, kernel_size=(7,), stride=(1,), groups=1024)\n          )\n          (norm): LayerNorm((1024,), eps=1e-06, elementwise_affine=True)\n          (pwconv1): Linear(in_features=1024, out_features=4096, bias=True)\n          (act): GELU(approximate='none')\n          (pwconv2): Linear(in_features=4096, out_features=1024, bias=True)\n        )\n      )\n    )\n    (decoder): ModuleList(\n      (0): Qwen3OmniMoeCausalConvNet(\n        (conv): Conv1d(1024, 1536, kernel_size=(7,), stride=(1,))\n      )\n      (1): Qwen3OmniMoeCode2WavDecoderBlock(\n        (block): ModuleList(\n          (0): SnakeBeta()\n          (1): Qwen3OmniMoeCausalTransConvNet(\n            (conv): ConvTranspose1d(1536, 768, kernel_size=(16,), stride=(8,))\n          )\n          (2): Qwen3OmniMoeCode2WavDecoderResidualUnit(\n            (act1): SnakeBeta()\n            (conv1): Qwen3OmniMoeCausalConvNet(\n              (conv): Conv1d(768, 768, kernel_size=(7,), stride=(1,))\n            )\n            (act2): SnakeBeta()\n            (conv2): Qwen3OmniMoeCausalConvNet(\n              (conv): Conv1d(768, 768, kernel_size=(1,), stride=(1,))\n            )\n          )\n          (3): Qwen3OmniMoeCode2WavDecoderResidualUnit(\n            (act1): SnakeBeta()\n            (conv1): Qwen3OmniMoeCausalConvNet(\n              (conv): Conv1d(768, 768, kernel_size=(7,), stride=(1,), dilation=(3,))\n            )\n            (act2): SnakeBeta()\n            (conv2): Qwen3OmniMoeCausalConvNet(\n              (conv): Conv1d(768, 768, kernel_size=(1,), stride=(1,))\n            )\n          )\n          (4): Qwen3OmniMoeCode2WavDecoderResidualUnit(\n            (act1): SnakeBeta()\n            (conv1): Qwen3OmniMoeCausalConvNet(\n              (conv): Conv1d(768, 768, kernel_size=(7,), stride=(1,), dilation=(9,))\n            )\n            (act2): SnakeBeta()\n            (conv2): Qwen3OmniMoeCausalConvNet(\n              (conv): Conv1d(768, 768, kernel_size=(1,), stride=(1,))\n            )\n          )\n        )\n      )\n      (2): Qwen3OmniMoeCode2WavDecoderBlock(\n        (block): ModuleList(\n          (0): SnakeBeta()\n          (1): Qwen3OmniMoeCausalTransConvNet(\n            (conv): ConvTranspose1d(768, 384, kernel_size=(10,), stride=(5,))\n          )\n          (2): Qwen3OmniMoeCode2WavDecoderResidualUnit(\n            (act1): SnakeBeta()\n            (conv1): Qwen3OmniMoeCausalConvNet(\n              (conv): Conv1d(384, 384, kernel_size=(7,), stride=(1,))\n            )\n            (act2): SnakeBeta()\n            (conv2): Qwen3OmniMoeCausalConvNet(\n              (conv): Conv1d(384, 384, kernel_size=(1,), stride=(1,))\n            )\n          )\n          (3): Qwen3OmniMoeCode2WavDecoderResidualUnit(\n            (act1): SnakeBeta()\n            (conv1): Qwen3OmniMoeCausalConvNet(\n              (conv): Conv1d(384, 384, kernel_size=(7,), stride=(1,), dilation=(3,))\n            )\n            (act2): SnakeBeta()\n            (conv2): Qwen3OmniMoeCausalConvNet(\n              (conv): Conv1d(384, 384, kernel_size=(1,), stride=(1,))\n            )\n          )\n          (4): Qwen3OmniMoeCode2WavDecoderResidualUnit(\n            (act1): SnakeBeta()\n            (conv1): Qwen3OmniMoeCausalConvNet(\n              (conv): Conv1d(384, 384, kernel_size=(7,), stride=(1,), dilation=(9,))\n            )\n            (act2): SnakeBeta()\n            (conv2): Qwen3OmniMoeCausalConvNet(\n              (conv): Conv1d(384, 384, kernel_size=(1,), stride=(1,))\n            )\n          )\n        )\n      )\n      (3): Qwen3OmniMoeCode2WavDecoderBlock(\n        (block): ModuleList(\n          (0): SnakeBeta()\n          (1): Qwen3OmniMoeCausalTransConvNet(\n            (conv): ConvTranspose1d(384, 192, kernel_size=(8,), stride=(4,))\n          )\n          (2): Qwen3OmniMoeCode2WavDecoderResidualUnit(\n            (act1): SnakeBeta()\n            (conv1): Qwen3OmniMoeCausalConvNet(\n              (conv): Conv1d(192, 192, kernel_size=(7,), stride=(1,))\n            )\n            (act2): SnakeBeta()\n            (conv2): Qwen3OmniMoeCausalConvNet(\n              (conv): Conv1d(192, 192, kernel_size=(1,), stride=(1,))\n            )\n          )\n          (3): Qwen3OmniMoeCode2WavDecoderResidualUnit(\n            (act1): SnakeBeta()\n            (conv1): Qwen3OmniMoeCausalConvNet(\n              (conv): Conv1d(192, 192, kernel_size=(7,), stride=(1,), dilation=(3,))\n            )\n            (act2): SnakeBeta()\n            (conv2): Qwen3OmniMoeCausalConvNet(\n              (conv): Conv1d(192, 192, kernel_size=(1,), stride=(1,))\n            )\n          )\n          (4): Qwen3OmniMoeCode2WavDecoderResidualUnit(\n            (act1): SnakeBeta()\n            (conv1): Qwen3OmniMoeCausalConvNet(\n              (conv): Conv1d(192, 192, kernel_size=(7,), stride=(1,), dilation=(9,))\n            )\n            (act2): SnakeBeta()\n            (conv2): Qwen3OmniMoeCausalConvNet(\n              (conv): Conv1d(192, 192, kernel_size=(1,), stride=(1,))\n            )\n          )\n        )\n      )\n      (4): Qwen3OmniMoeCode2WavDecoderBlock(\n        (block): ModuleList(\n          (0): SnakeBeta()\n          (1): Qwen3OmniMoeCausalTransConvNet(\n            (conv): ConvTranspose1d(192, 96, kernel_size=(6,), stride=(3,))\n          )\n          (2): Qwen3OmniMoeCode2WavDecoderResidualUnit(\n            (act1): SnakeBeta()\n            (conv1): Qwen3OmniMoeCausalConvNet(\n              (conv): Conv1d(96, 96, kernel_size=(7,), stride=(1,))\n            )\n            (act2): SnakeBeta()\n            (conv2): Qwen3OmniMoeCausalConvNet(\n              (conv): Conv1d(96, 96, kernel_size=(1,), stride=(1,))\n            )\n          )\n          (3): Qwen3OmniMoeCode2WavDecoderResidualUnit(\n            (act1): SnakeBeta()\n            (conv1): Qwen3OmniMoeCausalConvNet(\n              (conv): Conv1d(96, 96, kernel_size=(7,), stride=(1,), dilation=(3,))\n            )\n            (act2): SnakeBeta()\n            (conv2): Qwen3OmniMoeCausalConvNet(\n              (conv): Conv1d(96, 96, kernel_size=(1,), stride=(1,))\n            )\n          )\n          (4): Qwen3OmniMoeCode2WavDecoderResidualUnit(\n            (act1): SnakeBeta()\n            (conv1): Qwen3OmniMoeCausalConvNet(\n              (conv): Conv1d(96, 96, kernel_size=(7,), stride=(1,), dilation=(9,))\n            )\n            (act2): SnakeBeta()\n            (conv2): Qwen3OmniMoeCausalConvNet(\n              (conv): Conv1d(96, 96, kernel_size=(1,), stride=(1,))\n            )\n          )\n        )\n      )\n      (5): SnakeBeta()\n      (6): Qwen3OmniMoeCausalConvNet(\n        (conv): Conv1d(96, 1, kernel_size=(7,), stride=(1,))\n      )\n    )\n  )\n)>\n\nApplying patches...\n[38;20m2026-05-25 08:31:42 INFO replace_modules.py L107: Experts (before replacement) [thinker.model.layers.0.mlp.experts] (SequentialQwen3OmniThinkerExperts):\nSequentialQwen3OmniThinkerExperts(\n  (0-127): 128 x Qwen3OmniMoeThinkerTextMLP(\n    (gate_proj): QuantLinear()\n    (up_proj): QuantLinear()\n    (dow
…
      (0-127): 128 x Qwen3OmniMoeThinkerTextMLP(\n                (gate_proj): QuantLinear()\n                (up_proj): QuantLinear()\n                (down_proj): QuantLinear()\n                (act_fn): SiLUActivation()\n              )\n            )\n          )\n          (input_layernorm): Qwen3OmniMoeThinkerTextRMSNorm((2048,), eps=1e-06)\n          (post_attention_layernorm): Qwen3OmniMoeThinkerTextRMSNorm((2048,), eps=1e-06)\n        )\n      )\n      (norm): Qwen3OmniMoeTextRMSNorm((2048,), eps=1e-06)\n      (rotary_emb): Qwen3OmniMoeThinkerTextRotaryEmbedding()\n    )\n    (lm_head): Linear(in_features=2048, out_features=152064, bias=False)\n  )\n  (talker): Qwen3OmniMoeTalkerForConditionalGeneration(\n    (model): Qwen3OmniMoeTalkerModel(\n      (layers): ModuleList(\n        (0-19): 20 x Qwen3OmniMoeTalkerDecoderLayer(\n          (self_attn): Qwen3OmniMoeThinkerTextAttention(\n            (q_proj): Linear(in_features=1024, out_features=2048, bias=False)\n            (k_proj): Linear(in_features=1024, out_features=256, bias=False)\n            (v_proj): Linear(in_features=1024, out_features=256, bias=False)\n            (o_proj): Linear(in_features=2048, out_features=1024, bias=False)\n            (q_norm): Qwen3OmniMoeThinkerTextRMSNorm((128,), eps=1e-06)\n            (k_norm): Qwen3OmniMoeThinkerTextRMSNorm((128,), eps=1e-06)\n          )\n          (mlp): LinearQwen3OmniTalkerSparseMoeBlock(\n            (gate): Qwen3OmniMoeTalkerTextTopKRouter()\n            (shared_expert): Qwen3OmniMoeTalkerTextMLP(\n              (gate_proj): Linear(in_features=1024, out_features=768, bias=False)\n              (up_proj): Linear(in_features=1024, out_features=768, bias=False)\n              (down_proj): Linear(in_features=768, out_features=1024, bias=False)\n              (act_fn): SiLUActivation()\n            )\n            (shared_expert_gate): Linear(in_features=1024, out_features=1, bias=False)\n            (experts): SequentialQwen3OmniTalkerExperts(\n              (0-127): 128 x Qwen3OmniMoeTalkerTextMLP(\n                (gate_proj): Linear(in_features=1024, out_features=384, bias=False)\n                (up_proj): Linear(in_features=1024, out_features=384, bias=False)\n                (down_proj): Linear(in_features=384, out_features=1024, bias=False)\n                (act_fn): SiLUActivation()\n              )\n            )\n          )\n          (input_layernorm): Qwen3OmniMoeThinkerTextRMSNorm((1024,), eps=1e-06)\n          (post_attention_layernorm): Qwen3OmniMoeThinkerTextRMSNorm((1024,), eps=1e-06)\n        )\n      )\n      (norm): Qwen3OmniMoeTextRMSNorm((1024,), eps=1e-06)\n      (rotary_emb): Qwen3OmniMoeTalkerRotaryEmbedding()\n      (codec_embedding): Embedding(3072, 1024)\n    )\n    (text_projection): Qwen3OmniMoeTalkerResizeMLP(\n      (linear_fc1): Linear(in_features=2048, out_features=2048, bias=True)\n      (linear_fc2): Linear(in_features=2048, out_features=1024, bias=True)\n      (act_fn): SiLUActivation()\n    )\n    (hidden_projection): Qwen3OmniMoeTalkerResizeMLP(\n      (linear_fc1): Linear(in_features=2048, out_features=2048, bias=True)\n      (linear_fc2): Linear(in_features=2048, out_features=1024, bias=True)\n      (act_fn): SiLUActivation()\n    )\n    (codec_head): Linear(in_features=1024, out_features=3072, bias=False)\n    (code_predictor): Qwen3OmniMoeTalkerCodePredictorModelForConditionalGeneration(\n      (model): Qwen3OmniMoeTalkerCodePredictorModel(\n        (layers): ModuleList(\n          (0-4): 5 x Qwen3OmniMoeTalkerCodePredictorDecoderLayer(\n            (self_attn): Qwen3OmniMoeTalkerCodePredictorAttention(\n              (q_proj): Linear(in_features=1024, out_features=2048, bias=False)\n              (k_proj): Linear(in_features=1024, out_features=1024, bias=False)\n              (v_proj): Linear(in_features=1024, out_features=1024, bias=False)\n              (o_proj): Linear(in_features=2048, out_features=1024, bias=False)\n              (q_norm): Qwen3OmniMoeRMSNorm((128,), eps=1e-06)\n              (k_norm): Qwen3OmniMoeRMSNorm((128,), eps=1e-06)\n            )\n            (mlp): Qwen3OmniMoeMLP(\n              (gate_proj): Linear(in_features=1024, out_features=3072, bias=False)\n              (up_proj): Linear(in_features=1024, out_features=3072, bias=False)\n              (down_proj): Linear(in_features=3072, out_features=1024, bias=False)\n              (act_fn): SiLUActivation()\n            )\n            (input_layernorm): Qwen3OmniMoeRMSNorm((1024,), eps=1e-06)\n            (post_attention_layernorm): Qwen3OmniMoeRMSNorm((1024,), eps=1e-06)\n          )\n        )\n        (norm): Qwen3OmniMoeRMSNorm((1024,), eps=1e-06)\n        (rotary_emb): Qwen3OmniMoeRotaryEmbedding()\n        (codec_embedding): ModuleList(\n          (0-14): 15 x Embedding(2048, 1024)\n        )\n      )\n      (lm_head): ModuleList(\n        (0-14): 15 x Linear(in_features=1024, out_features=2048, bias=False)\n      )\n    )\n  )\n  (code2wav): Qwen3OmniMoeCode2Wav(\n    (pre_transformer): Qwen3OmniMoeCode2WavTransformerModel(\n      (layers): ModuleList(\n        (0-7): 8 x Qwen3OmniMoeCode2WavTransformerLayer(\n          (self_attn): Qwen3OmniMoeCode2WavAttention(\n            (q_proj): Linear(in_features=1024, out_features=1024, bias=False)\n            (k_proj): Linear(in_features=1024, out_features=1024, bias=False)\n            (v_proj): Linear(in_features=1024, out_features=1024, bias=False)\n            (o_proj): Linear(in_features=1024, out_features=1024, bias=False)\n            (q_norm): Identity()\n            (k_norm): Identity()\n          )\n          (mlp): Qwen3OmniMoeCode2WavMlp(\n            (gate_proj): Linear(in_features=1024, out_features=3072, bias=False)\n            (up_proj): Linear(in_features=1024, out_features=3072, bias=False)\n            (down_proj): Linear(in_features=3072, out_features=1024, bias=False)\n            (act_fn): SiLUActivation()\n          )\n          (input_layernorm): Qwen3OmniMoeCode2WavRMSNorm((1024,), eps=1e-05)\n          (post_attention_layernorm): Qwen3OmniMoeCode2WavRMSNorm((1024,), eps=1e-05)\n          (self_attn_layer_scale): Qwen3OmniMoeCode2WavLayerScale()\n          (mlp_layer_scale): Qwen3OmniMoeCode2WavLayerScale()\n        )\n      )\n      (norm): Qwen3OmniMoeRMSNorm((1024,), eps=1e-05)\n      (rotary_emb): Qwen3OmniMoeRotaryEmbedding()\n    )\n    (code_embedding): Embedding(32768, 1024)\n    (upsample): ModuleList(\n      (0-1): 2 x ModuleList(\n        (0): Qwen3OmniMoeCausalTransConvNet(\n          (conv): ConvTranspose1d(1024, 1024, kernel_size=(2,), stride=(2,))\n        )\n        (1): Qwen3OmniMoeConvNeXtBlock(\n          (dwconv): Qwen3OmniMoeCausalConvNet(\n            (conv): Conv1d(1024, 1024, kernel_size=(7,), stride=(1,), groups=1024)\n          )\n          (norm): LayerNorm((1024,), eps=1e-06, elementwise_affine=True)\n          (pwconv1): Linear(in_features=1024, out_features=4096, bias=True)\n          (act): GELU(approximate='none')\n          (pwconv2): Linear(in_features=4096, out_features=1024, bias=True)\n        )\n      )\n    )\n    (decoder): ModuleList(\n      (0): Qwen3OmniMoeCausalConvNet(\n        (conv): Conv1d(1024, 1536, kernel_size=(7,), stride=(1,))\n      )\n      (1): Qwen3OmniMoeCode2WavDecoderBlock(\n        (block): ModuleList(\n          (0): SnakeBeta()\n          (1): Qwen3OmniMoeCausalTransConvNet(\n            (conv): ConvTranspose1d(1536, 768, kernel_size=(16,), stride=(8,))\n          )\n          (2): Qwen3OmniMoeCode2WavDecoderResidualUnit(\n            (act1): SnakeBeta()\n            (conv1): Qwen3OmniMoeCausalConvNet(\n              (conv): Conv1d(768, 768, kernel_size=(7,), stride=(1,))\n            )\n            (act2): SnakeBeta()\n            (conv2): Qwen3OmniMoeCausalConvNet(\n              (conv): Conv1d(768, 768, kernel_size=(1,), stride=(1,))\n            )\n          )\n          (3): Qwen3OmniMoeCode2WavDecoderResidualUnit(\n            (act1): SnakeBeta()\n            (conv1): Qwen3OmniMoeCausalConvNet(\n              (conv): Conv1d(768, 768, kernel_size=(7,), stride=(1,), dilation=(3,))\n            )\n            (act2): SnakeBeta()\n            (conv2): Qwen3OmniMoeCausalConvNet(\n              (conv): Conv1d(768, 768, kernel_size=(1,), stride=(1,))\n            )\n          )\n          (4): Qwen3OmniMoeCode2WavDecoderResidualUnit(\n            (act1): SnakeBeta()\n            (conv1): Qwen3OmniMoeCausalConvNet(\n              (conv): Conv1d(768, 768, kernel_size=(7,), stride=(1,), dilation=(9,))\n            )\n            (act2): SnakeBeta()\n            (conv2): Qwen3OmniMoeCausalConvNet(\n              (conv): Conv1d(768, 768, kernel_size=(1,), stride=(1,))\n            )\n          )\n        )\n      )\n      (2): Qwen3OmniMoeCode2WavDecoderBlock(\n        (block): ModuleList(\n          (0): SnakeBeta()\n          (1): Qwen3OmniMoeCausalTransConvNet(\n            (conv): ConvTranspose1d(768, 384, kernel_size=(10,), stride=(5,))\n          )\n          (2): Qwen3OmniMoeCode2WavDecoderResidualUnit(\n            (act1): SnakeBeta()\n            (conv1): Qwen3OmniMoeCausalConvNet(\n              (conv): Conv1d(384, 384, kernel_size=(7,), stride=(1,))\n            )\n            (act2): SnakeBeta()\n            (conv2): Qwen3OmniMoeCausalConvNet(\n              (conv): Conv1d(384, 384, kernel_size=(1,), stride=(1,))\n            )\n          )\n          (3): Qwen3OmniMoeCode2WavDecoderResidualUnit(\n            (act1): SnakeBeta()\n            (conv1): Qwen3OmniMoeCausalConvNet(\n              (conv): Conv1d(384, 384, kernel_size=(7,), stride=(1,), dilation=(3,))\n            )\n            (act2): SnakeBeta()\n            (conv2): Qwen3OmniMoeCausalConvNet(\n              (conv): Conv1d(384, 384, kernel_size=(1,), stride=(1,))\n            )\n          )\n          (4): Qwen3OmniMoeCode2WavDecoderResidualUnit(\n            (act1): SnakeBeta()\n            (conv1): Qwen3OmniMoeCausalConvNet(\n              (conv): Conv1d(384, 384, kernel_size=(7,), stride=(1,), dilation=(9,))\n            )\n            (act2): SnakeBeta()\n            (conv2): Qwen3OmniMoeCausalConvNet(\n              (conv): Conv1d(384, 384, kernel_size=(1,), stride=(1,))\n            )\n          )\n        )\n      )\n      (3): Qwen3OmniMoeCode2WavDecoderBlock(\n        (block): ModuleList(\n          (0): SnakeBeta()\n          (1): Qwen3OmniMoeCausalTransConvNet(\n            (conv): ConvTranspose1d(384, 192, kernel_size=(8,), stride=(4,))\n          )\n          (2): Qwen3OmniMoeCode2WavDecoderResidualUnit(\n            (act1): SnakeBeta()\n            (conv1): Qwen3OmniMoeCausalConvNet(\n              (conv): Conv1d(192, 192, kernel_size=(7,), stride=(1,))\n            )\n            (act2): SnakeBeta()\n            (conv2): Qwen3OmniMoeCausalConvNet(\n              (conv): Conv1d(192, 192, kernel_size=(1,), stride=(1,))\n            )\n          )\n          (3): Qwen3OmniMoeCode2WavDecoderResidualUnit(\n            (act1): SnakeBeta()\n            (conv1): Qwen3OmniMoeCausalConvNet(\n              (conv): Conv1d(192, 192, kernel_size=(7,), stride=(1,), dilation=(3,))\n            )\n            (act2): SnakeBeta()\n            (conv2): Qwen3OmniMoeCausalConvNet(\n              (conv): Conv1d(192, 192, kernel_size=(1,), stride=(1,))\n            )\n          )\n          (4): Qwen3OmniMoeCode2WavDecoderResidualUnit(\n            (act1): SnakeBeta()\n            (conv1): Qwen3OmniMoeCausalConvNet(\n              (conv): Conv1d(192, 192, kernel_size=(7,), stride=(1,), dilation=(9,))\n            )\n            (act2): SnakeBeta()\n            (conv2): Qwen3OmniMoeCausalConvNet(\n              (conv): Conv1d(192, 192, kernel_size=(1,), stride=(1,))\n            )\n          )\n        )\n      )\n      (4): Qwen3OmniMoeCode2WavDecoderBlock(\n        (block): ModuleList(\n          (0): SnakeBeta()\n          (1): Qwen3OmniMoeCausalTransConvNet(\n            (conv): ConvTranspose1d(192, 96, kernel_size=(6,), stride=(3,))\n          )\n          (2): Qwen3OmniMoeCode2WavDecoderResidualUnit(\n            (act1): SnakeBeta()\n            (conv1): Qwen3OmniMoeCausalConvNet(\n              (conv): Conv1d(96, 96, kernel_size=(7,), stride=(1,))\n            )\n            (act2): SnakeBeta()\n            (conv2): Qwen3OmniMoeCausalConvNet(\n              (conv): Conv1d(96, 96, kernel_size=(1,), stride=(1,))\n            )\n          )\n          (3): Qwen3OmniMoeCode2WavDecoderResidualUnit(\n            (act1): SnakeBeta()\n            (conv1): Qwen3OmniMoeCausalConvNet(\n              (conv): Conv1d(96, 96, kernel_size=(7,), stride=(1,), dilation=(3,))\n            )\n            (act2): SnakeBeta()\n            (conv2): Qwen3OmniMoeCausalConvNet(\n              (conv): Conv1d(96, 96, kernel_size=(1,), stride=(1,))\n            )\n          )\n          (4): Qwen3OmniMoeCode2WavDecoderResidualUnit(\n            (act1): SnakeBeta()\n            (conv1): Qwen3OmniMoeCausalConvNet(\n              (conv): Conv1d(96, 96, kernel_size=(7,), stride=(1,), dilation=(9,))\n            )\n            (act2): SnakeBeta()\n            (conv2): Qwen3OmniMoeCausalConvNet(\n              (conv): Conv1d(96, 96, kernel_size=(1,), stride=(1,))\n            )\n          )\n        )\n      )\n      (5): SnakeBeta()\n      (6): Qwen3OmniMoeCausalConvNet(\n        (conv): Conv1d(96, 1, kernel_size=(7,), stride=(1,))\n      )\n    )\n  )\n)>\n[transformers] Unrecognized keys in `rope_parameters` for 'rope_type'='default': {'mrope_section', 'interleaved'}\nTraceback (most recent call last):\n  File \"<stdin>\", line 40, in <module>\n  File \"/root/.openclaw/workspace/quantized/runs/Intel_Qwen3-Omni-30B-A3B-Instruct-int4-AutoRound-W4A16-RTN/venv/lib/python3.12/site-packages/
…
total":0.004892039999999999}},"stopReason":"toolUse","timestamp":1779698328186,"responseId":"06633d997aec50a335f6f08d66c24ca0"}}
{"type":"message","id":"86734b3f","parentId":"5b75ddf9","timestamp":"2026-05-25T08:39:29.571Z","message":{"role":"toolResult","toolCallId":"call_function_9hgds28l95aj_1","toolName":"process","content":[{"type":"text","text":"Qwen3OmniMoeCode2Wav(\n    (pre_transformer): Qwen3OmniMoeCode2WavTransformerModel(\n      (layers): ModuleList(\n        (0-7): 8 x Qwen3OmniMoeCode2WavTransformerLayer(\n          (self_attn): Qwen3OmniMoeCode2WavAttention(\n            (q_proj): Linear(in_features=1024, out_features=1024, bias=False)\n            (k_proj): Linear(in_features=1024, out_features=1024, bias=False)\n            (v_proj): Linear(in_features=1024, out_features=1024, bias=False)\n            (o_proj): Linear(in_features=1024, out_features=1024, bias=False)\n            (q_norm): Identity()\n            (k_norm): Identity()\n          )\n          (mlp): Qwen3OmniMoeCode2WavMlp(\n            (gate_proj): Linear(in_features=1024, out_features=3072, bias=False)\n            (up_proj): Linear(in_features=1024, out_features=3072, bias=False)\n            (down_proj): Linear(in_features=3072, out_features=1024, bias=False)\n            (act_fn): SiLUActivation()\n          )\n          (input_layernorm): Qwen3OmniMoeCode2WavRMSNorm((1024,), eps=1e-05)\n          (post_attention_layernorm): Qwen3OmniMoeCode2WavRMSNorm((1024,), eps=1e-05)\n          (self_attn_layer_scale): Qwen3OmniMoeCode2WavLayerScale()\n          (mlp_layer_scale): Qwen3OmniMoeCode2WavLayerScale()\n        )\n      )\n      (norm): Qwen3OmniMoeRMSNorm((1024,), eps=1e-05)\n      (rotary_emb): Qwen3OmniMoeRotaryEmbedding()\n    )\n    (code_embedding): Embedding(32768, 1024)\n    (upsample): ModuleList(\n      (0-1): 2 x ModuleList(\n        (0): Qwen3OmniMoeCausalTransConvNet(\n          (conv): ConvTranspose1d(1024, 1024, kernel_size=(2,), stride=(2,))\n        )\n        (1): Qwen3OmniMoeConvNeXtBlock(\n          (dwconv): Qwen3OmniMoeCausalConvNet(\n            (conv): Conv1d(1024, 1024, kernel_size=(7,), stride=(1,), groups=1024)\n          )\n          (norm): LayerNorm((1024,), eps=1e-06, elementwise_affine=True)\n          (pwconv1): Linear(in_features=1024, out_features=4096, bias=True)\n          (act): GELU(approximate='none')\n          (pwconv2): Linear(in_features=4096, out_features=1024, bias=True)\n        )\n      )\n    )\n    (decoder): ModuleList(\n      (0): Qwen3OmniMoeCausalConvNet(\n        (conv): Conv1d(1024, 1536, kernel_size=(7,), stride=(1,))\n      )\n      (1): Qwen3OmniMoeCode2WavDecoderBlock(\n        (block): ModuleList(\n          (0): SnakeBeta()\n          (1): Qwen3OmniMoeCausalTransConvNet(\n            (conv): ConvTranspose1d(1536, 768, kernel_size=(16,), stride=(8,))\n          )\n          (2): Qwen3OmniMoeCode2WavDecoderResidualUnit(\n            (act1): SnakeBeta()\n            (conv1): Qwen3OmniMoeCausalConvNet(\n              (conv): Conv1d(768, 768, kernel_size=(7,), stride=(1,))\n            )\n            (act2): SnakeBeta()\n            (conv2): Qwen3OmniMoeCausalConvNet(\n              (conv): Conv1d(768, 768, kernel_size=(1,), stride=(1,))\n            )\n          )\n          (3): Qwen3OmniMoeCode2WavDecoderResidualUnit(\n            (act1): SnakeBeta()\n            (conv1): Qwen3OmniMoeCausalConvNet(\n              (conv): Conv1d(768, 768, kernel_size=(7,), stride=(1,), dilation=(3,))\n            )\n            (act2): SnakeBeta()\n            (conv2): Qwen3OmniMoeCausalConvNet(\n              (conv): Conv1d(768, 768, kernel_size=(1,), stride=(1,))\n            )\n          )\n          (4): Qwen3OmniMoeCode2WavDecoderResidualUnit(\n            (act1): SnakeBeta()\n            (conv1): Qwen3OmniMoeCausalConvNet(\n              (conv): Conv1d(768, 768, kernel_size=(7,), stride=(1,), dilation=(9,))\n            )\n            (act2): SnakeBeta()\n            (conv2): Qwen3OmniMoeCausalConvNet(\n              (conv): Conv1d(768, 768, kernel_size=(1,), stride=(1,))\n            )\n          )\n        )\n      )\n      (2): Qwen3OmniMoeCode2WavDecoderBlock(\n        (block): ModuleList(\n          (0): SnakeBeta()\n          (1): Qwen3OmniMoeCausalTransConvNet(\n            (conv): ConvTranspose1d(768, 384, kernel_size=(10,), stride=(5,))\n          )\n          (2): Qwen3OmniMoeCode2WavDecoderResidualUnit(\n            (act1): SnakeBeta()\n            (conv1): Qwen3OmniMoeCausalConvNet(\n              (conv): Conv1d(384, 384, kernel_size=(7,), stride=(1,))\n            )\n            (act2): SnakeBeta()\n            (conv2): Qwen3OmniMoeCausalConvNet(\n              (conv): Conv1d(384, 384, kernel_size=(1,), stride=(1,))\n            )\n          )\n          (3): Qwen3OmniMoeCode2WavDecoderResidualUnit(\n            (act1): SnakeBeta()\n            (conv1): Qwen3OmniMoeCausalConvNet(\n              (conv): Conv1d(384, 384, kernel_size=(7,), stride=(1,), dilation=(3,))\n            )\n            (act2): SnakeBeta()\n            (conv2): Qwen3OmniMoeCausalConvNet(\n              (conv): Conv1d(384, 384, kernel_size=(1,), stride=(1,))\n            )\n          )\n          (4): Qwen3OmniMoeCode2WavDecoderResidualUnit(\n            (act1): SnakeBeta()\n            (conv1): Qwen3OmniMoeCausalConvNet(\n              (conv): Conv1d(384, 384, kernel_size=(7,), stride=(1,), dilation=(9,))\n            )\n            (act2): SnakeBeta()\n            (conv2): Qwen3OmniMoeCausalConvNet(\n              (conv): Conv1d(384, 384, kernel_size=(1,), stride=(1,))\n            )\n          )\n        )\n      )\n      (3): Qwen3OmniMoeCode2WavDecoderBlock(\n        (block): ModuleList(\n          (0): SnakeBeta()\n          (1): Qwen3OmniMoeCausalTransConvNet(\n            (conv): ConvTranspose1d(384, 192, kernel_size=(8,), stride=(4,))\n          )\n          (2): Qwen3OmniMoeCode2WavDecoderResidualUnit(\n            (act1): SnakeBeta()\n            (conv1): Qwen3OmniMoeCausalConvNet(\n              (conv): Conv1d(192, 192, kernel_size=(7,), stride=(1,))\n            )\n            (act2): SnakeBeta()\n            (conv2): Qwen3OmniMoeCausalConvNet(\n              (conv): Conv1d(192, 192, kernel_size=(1,), stride=(1,))\n            )\n          )\n          (3): Qwen3OmniMoeCode2WavDecoderResidualUnit(\n            (act1): SnakeBeta()\n            (conv1): Qwen3OmniMoeCausalConvNet(\n              (conv): Conv1d(192, 192, kernel_size=(7,), stride=(1,), dilation=(3,))\n            )\n            (act2): SnakeBeta()\n            (conv2): Qwen3OmniMoeCausalConvNet(\n              (conv): Conv1d(192, 192, kernel_size=(1,), stride=(1,))\n            )\n          )\n          (4): Qwen3OmniMoeCode2WavDecoderResidualUnit(\n            (act1): SnakeBeta()\n            (conv1): Qwen3OmniMoeCausalConvNet(\n              (conv): Conv1d(192, 192, kernel_size=(7,), stride=(1,), dilation=(9,))\n            )\n            (act2): SnakeBeta()\n            (conv2): Qwen3OmniMoeCausalConvNet(\n              (conv): Conv1d(192, 192, kernel_size=(1,), stride=(1,))\n            )\n          )\n        )\n      )\n      (4): Qwen3OmniMoeCode2WavDecoderBlock(\n        (block): ModuleList(\n          (0): SnakeBeta()\n          (1): Qwen3OmniMoeCausalTransConvNet(\n            (conv): ConvTranspose1d(192, 96, kernel_size=(6,), stride=(3,))\n          )\n          (2): Qwen3OmniMoeCode2WavDecoderResidualUnit(\n            (act1): SnakeBeta()\n            (conv1): Qwen3OmniMoeCausalConvNet(\n              (conv): Conv1d(96, 96, kernel_size=(7,), stride=(1,))\n            )\n            (act2): SnakeBeta()\n            (conv2): Qwen3OmniMoeCausalConvNet(\n              (conv): Conv1d(96, 96, kernel_size=(1,), stride=(1,))\n            )\n          )\n          (3): Qwen3OmniMoeCode2WavDecoderResidualUnit(\n            (act1): SnakeBeta()\n            (conv1): Qwen3OmniMoeCausalConvNet(\n              (conv): Conv1d(96, 96, kernel_size=(7,), stride=(1,), dilation=(3,))\n            )\n            (act2): SnakeBeta()\n            (conv2): Qwen3OmniMoeCausalConvNet(\n              (conv): Conv1d(96, 96, kernel_size=(1,), stride=(1,))\n            )\n          )\n          (4): Qwen3OmniMoeCode2WavDecoderResidualUnit(\n            (act1): SnakeBeta()\n            (conv1): Qwen3OmniMoeCausalConvNet(\n              (conv): Conv1d(96, 96, kernel_size=(7,), stride=(1,), dilation=(9,))\n            )\n            (act2): SnakeBeta()\n            (conv2): Qwen3OmniMoeCausalConvNet(\n              (conv): Conv1d(96, 96, kernel_size=(1,), stride=(1,))\n            )\n          )\n        )\n      )\n      (5): SnakeBeta()\n      (6): Qwen3OmniMoeCausalConvNet(\n        (conv): Conv1d(96, 1, kernel_size=(7,), stride=(1,))\n      )\n    )\n  )\n)>\n\nAfter patches:\n  thinker.forward: <bound method Qwen3OmniMoeThinkerForConditionalGeneration.forward of Qwen3OmniMoeThinkerForConditionalGeneration(\n  (audio_tower): Qwen3OmniMoeAudioEncoder(\n    (positional_embedding): SinusoidsPositionEmbedding()\n    (layers): ModuleList(\n      (0-31): 32 x Qwen3OmniMoeAudioEncoderLayer(\n        (self_attn): Qwen3OmniMoeAudioAttention(\n          (k_proj): Linear(in_features=1280, out_features=1280, bias=True)\n          (v_proj): Linear(in_features=1280, out_features=1280, bias=True)\n          (q_proj): Linear(in_features=1280, out_features=1280, bias=True)\n          (out_proj): Linear(in_features=1280, out_features=1280, bias=True)\n        )\n        (self_attn_layer_norm): LayerNorm((1280,), eps=1e-05, elementwise_affine=True)\n        (activation_fn): GELUActivation()\n        (fc1): Linear(in_features=1280, out_features=5120, bias=True)\n        (fc2): Linear(in_features=5120, out_features=1280, bias=True)\n        (final_layer_norm): LayerNorm((1280,), eps=1e-05, elementwise_affine=True)\n      )\n    )\n    (ln_post): LayerNorm((1280,), eps=1e-05, elementwise_affine=True)\n    (conv2d1): Conv2d(1, 480, kernel_size=(3, 3), stride=(2, 2), padding=(1, 1))\n    (conv2d2): Conv2d(480, 480, kernel_size=(3, 3), stride=(2, 2), padding=(1, 1))\n    (conv2d3): Conv2d(480, 480, kernel_size=(3, 3), stride=(2, 2), padding=(1, 1))\n    (conv_out): Linear(in_features=7680, out_features=1280, bias=False)\n    (proj1): Linear(in_features=1280, out_features=1280, bias=True)\n    (act): GELUActivation()\n    (proj2): Linear(in_features=1280, out_features=2048, bias=True)\n  )\n  (visual): Qwen3OmniMoeVisionEncoder(\n    (merger_list): ModuleList(\n      (0-2): 3 x Qwen3OmniMoeVisionPatchMerger(\n        (ln_q): LayerNorm((4608,), eps=1e-06, elementwise_affine=True)\n        (mlp): ModuleList(\n          (0): Linear(in_features=4608, out_features=4608, bias=True)\n          (1): GELU(approximate='none')\n          (2): Linear(in_features=4608, out_features=2048, bias=True)\n        )\n      )\n    )\n    (patch_embed): Qwen3OmniMoeVisionPatchEmbed(\n      (proj): Conv3d(3, 1152, kernel_size=(2, 16, 16), stride=(2, 16, 16))\n    )\n    (pos_embed): Embedding(2304, 1152)\n    (rotary_pos_emb): Qwen3OmniMoeVisionRotaryEmbedding()\n    (blocks): ModuleList(\n      (0-26): 27 x Qwen3OmniMoeVisionBlock(\n        (norm1): LayerNorm((1152,), eps=1e-06, elementwise_affine=True)\n        (norm2): LayerNorm((1152,), eps=1e-06, elementwise_affine=True)\n        (attn): Qwen3OmniMoeVisionAttention(\n          (qkv): Linear(in_features=1152, out_features=3456, bias=True)\n          (proj): Linear(in_features=1152, out_features=1152, bias=True)\n        )\n        (mlp): Qwen3OmniMoeVisionMLP(\n          (linear_fc1): Linear(in_features=1152, out_features=4304, bias=True)\n          (linear_fc2): Linear(in_features=4304, out_features=1152, bias=True)\n          (act_fn): GELUTanh()\n        )\n      )\n    )\n    (merger): Qwen3OmniMoeVisionPatchMerger(\n      (ln_q): LayerNorm((1152,), eps=1e-06, elementwise_affine=True)\n      (mlp): ModuleList(\n        (0): Linear(in_features=4608, out_features=4608, bias=True)\n        (1): GELU(approximate='none')\n        (2): Linear(in_features=4608, out_features=2048, bias=True)\n      )\n    )\n  )\n  (model): Qwen3OmniMoeThinkerTextModel(\n    (embed_tokens): Embedding(152064, 2048)\n    (layers): ModuleList(\n      (0-47): 48 x Qwen3OmniMoeThinkerTextDecoderLayer(\n        (self_attn): Qwen3OmniMoeThinkerTextAttention(\n          (q_proj): QuantLinear()\n          (k_proj): QuantLinear()\n          (v_proj): QuantLinear()\n          (o_proj): QuantLinear()\n          (q_norm): Qwen3OmniMoeThinkerTextRMSNorm((128,), eps=1e-06)\n          (k_norm): Qwen3OmniMoeTh
…
en3OmniThinkerExperts(\n            (0-127): 128 x Qwen3OmniMoeThinkerTextMLP(\n              (gate_proj): QuantLinear()\n              (up_proj): QuantLinear()\n              (down_proj): QuantLinear()\n              (act_fn): SiLUActivation()\n            )\n          )\n        )\n        (input_layernorm): Qwen3OmniMoeThinkerTextRMSNorm((2048,), eps=1e-06)\n        (post_attention_layernorm): Qwen3OmniMoeThinkerTextRMSNorm((2048,), eps=1e-06)\n      )\n    )\n    (norm): Qwen3OmniMoeTextRMSNorm((2048,), eps=1e-06)\n    (rotary_emb): Qwen3OmniMoeThinkerTextRotaryEmbedding()\n  )\n  (lm_head): Linear(in_features=2048, out_features=152064, bias=False)\n)>\n  model.forward: <bound method _forward_unimplemented of Qwen3OmniMoeForConditionalGeneration(\n  (thinker): Qwen3OmniMoeThinkerForConditionalGeneration(\n    (audio_tower): Qwen3OmniMoeAudioEncoder(\n      (positional_embedding): SinusoidsPositionEmbedding()\n      (layers): ModuleList(\n        (0-31): 32 x Qwen3OmniMoeAudioEncoderLayer(\n          (self_attn): Qwen3OmniMoeAudioAttention(\n            (k_proj): Linear(in_features=1280, out_features=1280, bias=True)\n            (v_proj): Linear(in_features=1280, out_features=1280, bias=True)\n            (q_proj): Linear(in_features=1280, out_features=1280, bias=True)\n            (out_proj): Linear(in_features=1280, out_features=1280, bias=True)\n          )\n          (self_attn_layer_norm): LayerNorm((1280,), eps=1e-05, elementwise_affine=True)\n          (activation_fn): GELUActivation()\n          (fc1): Linear(in_features=1280, out_features=5120, bias=True)\n          (fc2): Linear(in_features=5120, out_features=1280, bias=True)\n          (final_layer_norm): LayerNorm((1280,), eps=1e-05, elementwise_affine=True)\n        )\n      )\n      (ln_post): LayerNorm((1280,), eps=1e-05, elementwise_affine=True)\n      (conv2d1): Conv2d(1, 480, kernel_size=(3, 3), stride=(2, 2), padding=(1, 1))\n      (conv2d2): Conv2d(480, 480, kernel_size=(3, 3), stride=(2, 2), padding=(1, 1))\n      (conv2d3): Conv2d(480, 480, kernel_size=(3, 3), stride=(2, 2), padding=(1, 1))\n      (conv_out): Linear(in_features=7680, out_features=1280, bias=False)\n      (proj1): Linear(in_features=1280, out_features=1280, bias=True)\n      (act): GELUActivation()\n      (proj2): Linear(in_features=1280, out_features=2048, bias=True)\n    )\n    (visual): Qwen3OmniMoeVisionEncoder(\n      (merger_list): ModuleList(\n        (0-2): 3 x Qwen3OmniMoeVisionPatchMerger(\n          (ln_q): LayerNorm((4608,), eps=1e-06, elementwise_affine=True)\n          (mlp): ModuleList(\n            (0): Linear(in_features=4608, out_features=4608, bias=True)\n            (1): GELU(approximate='none')\n            (2): Linear(in_features=4608, out_features=2048, bias=True)\n          )\n        )\n      )\n      (patch_embed): Qwen3OmniMoeVisionPatchEmbed(\n        (proj): Conv3d(3, 1152, kernel_size=(2, 16, 16), stride=(2, 16, 16))\n      )\n      (pos_embed): Embedding(2304, 1152)\n      (rotary_pos_emb): Qwen3OmniMoeVisionRotaryEmbedding()\n      (blocks): ModuleList(\n        (0-26): 27 x Qwen3OmniMoeVisionBlock(\n          (norm1): LayerNorm((1152,), eps=1e-06, elementwise_affine=True)\n          (norm2): LayerNorm((1152,), eps=1e-06, elementwise_affine=True)\n          (attn): Qwen3OmniMoeVisionAttention(\n            (qkv): Linear(in_features=1152, out_features=3456, bias=True)\n            (proj): Linear(in_features=1152, out_features=1152, bias=True)\n          )\n          (mlp): Qwen3OmniMoeVisionMLP(\n            (linear_fc1): Linear(in_features=1152, out_features=4304, bias=True)\n            (linear_fc2): Linear(in_features=4304, out_features=1152, bias=True)\n            (act_fn): GELUTanh()\n          )\n        )\n      )\n      (merger): Qwen3OmniMoeVisionPatchMerger(\n        (ln_q): LayerNorm((1152,), eps=1e-06, elementwise_affine=True)\n        (mlp): ModuleList(\n          (0): Linear(in_features=4608, out_features=4608, bias=True)\n          (1): GELU(approximate='none')\n          (2): Linear(in_features=4608, out_features=2048, bias=True)\n        )\n      )\n    )\n    (model): Qwen3OmniMoeThinkerTextModel(\n      (embed_tokens): Embedding(152064, 2048)\n      (layers): ModuleList(\n        (0-47): 48 x Qwen3OmniMoeThinkerTextDecoderLayer(\n          (self_attn): Qwen3OmniMoeThinkerTextAttention(\n            (q_proj): QuantLinear()\n            (k_proj): QuantLinear()\n            (v_proj): QuantLinear()\n            (o_proj): QuantLinear()\n            (q_norm): Qwen3OmniMoeThinkerTextRMSNorm((128,), eps=1e-06)\n            (k_nor
…
 replace_modules.py L374: Replaced 68 modules[0m\n[38;20m2026-05-25 08:38:49 INFO device.py L1737: [Memory Monitor] After applying custom replacements: 'peak_ram': 0.84GB[0m\n[33;1m2026-05-25 08:38:49 WARNING modeling_utils.py L4682: `loss_type=None` was set in the config but it is unrecognized. Using the default loss: `ForCausalLMLoss`.[0m\n[38;20m2026-05-25 08:38:52 INFO replace_modules.py L107: Experts (after replacement) [thinker.model.layers.0.mlp.experts] (SequentialQwen3OmniThinkerExperts):\nSequentialQwen3OmniThinkerExperts(\n  (0-127): 128 x Qwen3OmniMoeThinkerTextMLP(\n    (gate_proj): Linear(in_features=2048, out_features=768, bias=False)\n    (up_proj): Linear(in_features=2048, out_features=768, bias=False)\n    (down_proj): Linear(in_features=768, out_features=2048, bias=False)\n    (act_fn): SiLUActivation()\n  )\n)[0m\n[33;1m2026-05-25 08:38:57 WARNING backend.py L1186: Better backend is found, please install all the following requirements to enable it.[0m\n[33;1m2026-05-25 08:38:57 WARNING backend.py L1186: `pip install \"torch>=2.8.0\" \"auto-round-lib\"`[0m\n[38;20m2026-05-25 08:39:25 INFO common.py L424: Patched Qwen3-Omni MoE talker prepare_inputs_for_generation for transformers compat.[0m\nBefore patches:\n  thinker.forward: <bound method Qwen3OmniMoeThinkerForConditionalGeneration.forward of Qwen3OmniMoeThinkerForConditionalGeneration(\n  (audio_tower): Qwen3OmniMoeAudioEncoder(\n    (positional_embedding): SinusoidsPositionEmbedding()\n    (layers): ModuleList(\n      (0-31): 32 x Qwen3OmniMoeAudioEncoderLayer(\n        (self_attn): Qwen3OmniMoeAudioAttention(\n          (k_proj): Linear(in_features=1280, out_features=1280, bias=True)\n          (v_proj): Linear(in_features=1280, out_features=1280, bias=True)\n          (q_proj): Linear(in_features=1280, out_features=1280, bias=True)\n          (out_proj): Linear(in_features=1280, out_features=1280, bias=True)\n        )\n        (self_attn_layer_norm): LayerNorm((1280,), eps=1e-05, elementwise_affine=True)\n        (activation_fn): GELUActivation()\n        (fc1): Linear(in_features=1280, out_features=5120, bias=True)\n        (fc2): Linear(in_features=5120, out_features=1280, bias=True)\n        (final_layer_norm): LayerNorm((1280,), eps=1e-05, elementwise_affine=True)\n      )\n    )\n    (ln_post): LayerNorm((1280,), eps=1e-05, elementwise_affine=True)\n    (conv2d1): Conv2d(1, 480, kernel_size=(3, 3), stride=(2, 2), padding=(1, 1))\n    (conv2d2): Conv2d(480, 480, kernel_size=(3, 3), stride=(2, 2), padding=(1, 1))\n    (conv2d3): Conv2d(480, 480, kernel_size=(3, 3), stride=(2, 2), padding=(1, 1))\n    (conv_out): Linear(in_features=7680, out_features=1280, bias=False)\n    (proj1): Linear(in_features=1280, out_features=1280, bias=True)\n    (act): GELUActivation()\n    (proj2): Linear(in_features=1280, out_features=2048, bias=True)\n  )\n  (visual): Qwen3OmniMoeVisionEncoder(\n    (merger_list): ModuleList(\n      (0-2): 3 x Qwen3OmniMoeVisionPatchMerger(\n        (ln_q): LayerNorm((4608,), eps=1e-06, elementwise_affine=True)\n        (mlp): ModuleList(\n          (0): Linear(in_features=4608, out_features=4608, bias=True)\n          (1): GELU(approximate='none')\n          (2): Linear(in_features=4608, out_features=2048, bias=True)\n        )\n      )\n    )\n    (patch_embed): Qwen3OmniMoeVisionPatchEmbed(\n      (proj): Conv3d(3, 1152, kernel_size=(2, 16, 16), stride=(2, 16, 16))\n    )\n    (pos_embed): Embedding(2304, 1152)\n    (rotary_pos_emb): Qwen3OmniMoeVisionRotaryEmbedding()\n    (blocks): ModuleList(\n      (0-26): 27 x Qwen3OmniMoeVisionBlock(\n        (norm1): LayerNorm((1152,), eps=1e-06, elementwise_affine=True)\n        (norm2): LayerNorm((1152,), eps=1e-06, elementwise_affine=True)\n        (attn): Qwen3OmniMoeVisionAttention(\n          (qkv): Linear(in_features=1152, out_features=3456, bias=True)\n          (proj): Linear(in_features=1152, out_features=1152, bias=True)\n        )\n        (mlp): Qwen3OmniMoeVisionMLP(\n          (linear_fc1): Linear(in_features=1152, out_features=4304, bias=True)\n          (linear_fc2): Linear(in_features=4304, out_features=1152, bias=True)\n          (act_fn): GELUTanh()\n        )\n      )\n    )\n    (merger): Qwen3OmniMoeVisionPatchMerger(\n      (ln_q): LayerNorm((1152,), eps=1e-06, elementwise_affine=True)\n      (mlp): ModuleList(\n        (0): Linear(in_features=4608, out_features=4608, bias=True)\n        (1): GELU(approximate='none')\n        (2): Linear(in_features=4608, out_features=2048, bias=True)\n      )\n    )\n  )\n  (model): Qwen3OmniMoeThinkerTextModel(\n    (embed_tokens): Embedding(152064, 2048)\n    (layers): ModuleList(\n      (0-47): 48 x Qwen3OmniMoeThinkerTextDecoderLayer(\n        (self_attn): Qwen3OmniMoeThinkerTextAttention(\n          (q_proj): QuantLinear()\n          (k_proj): QuantLinear()\n          (v_proj): QuantLinear()\n          (o_proj): QuantLinear()\n          (q_norm): Qwen3OmniMoeThinkerTextRMSNorm((128,), eps=1e-06)\n          (k_norm): Qwen3OmniMoeTh
…
      (0-127): 128 x Qwen3OmniMoeThinkerTextMLP(\n                (gate_proj): QuantLinear()\n                (up_proj): QuantLinear()\n                (down_proj): QuantLinear()\n                (act_fn): SiLUActivation()\n              )\n            )\n          )\n          (input_layernorm): Qwen3OmniMoeThinkerTextRMSNorm((2048,), eps=1e-06)\n          (post_attention_layernorm): Qwen3OmniMoeThinkerTextRMSNorm((2048,), eps=1e-06)\n        )\n      )\n      (norm): Qwen3OmniMoeTextRMSNorm((2048,), eps=1e-06)\n      (rotary_emb): Qwen3OmniMoeThinkerTextRotaryEmbedding()\n    )\n    (lm_head): Linear(in_features=2048, out_features=152064, bias=False)\n  )\n  (talker): Qwen3OmniMoeTalkerForConditionalGeneration(\n    (model): Qwen3OmniMoeTalkerModel(\n      (layers): ModuleList(\n        (0-19): 20 x Qwen3OmniMoeTalkerDecoderLayer(\n          (self_attn): Qwen3OmniMoeThinkerTextAttention(\n            (q_proj): Linear(in_features=1024, out_features=2048, bias=False)\n            (k_proj): Linear(in_features=1024, out_features=256, bias=False)\n            (v_proj): Linear(in_features=1024, out_features=256, bias=False)\n            (o_proj): Linear(in_features=2048, out_features=1024, bias=False)\n            (q_norm): Qwen3OmniMoeThinkerTextRMSNorm((128,), eps=1e-06)\n            (k_norm): Qwen3OmniMoeThinkerTextRMSNorm((128,), eps=1e-06)\n          )\n          (mlp): LinearQwen3OmniTalkerSparseMoeBlock(\n            (gate): Qwen3OmniMoeTalkerTextTopKRouter()\n            (shared_expert): Qwen3OmniMoeTalkerTextMLP(\n              (gate_proj): Linear(in_features=1024, out_features=768, bias=False)\n              (up_proj): Linear(in_features=1024, out_features=768, bias=False)\n              (down_proj): Linear(in_features=768, out_features=1024, bias=False)\n              (act_fn): SiLUActivation()\n            )\n            (shared_expert_gate): Linear(in_features=1024, out_features=1, bias=False)\n            (experts): SequentialQwen3OmniTalkerExperts(\n              (0-127): 128 x Qwen3OmniMoeTalkerTextMLP(\n                (gate_proj): Linear(in_features=1024, out_features=384, bias=False)\n                (up_proj): Linear(in_features=1024, out_features=384, bias=False)\n                (down_proj): Linear(in_features=384, out_features=1024, bias=False)\n                (act_fn): SiLUActivation()\n              )\n            )\n          )\n          (input_layernorm): Qwen3OmniMoeThinkerTextRMSNorm((1024,), eps=1e-06)\n          (post_attention_layernorm): Qwen3OmniMoeThinkerTextRMSNorm((1024,), eps=1e-06)\n        )\n      )\n      (norm): Qwen3OmniMoeTextRMSNorm((1024,), eps=1e-06)\n      (rotary_emb): Qwen3OmniMoeTalkerRotaryEmbedding()\n      (codec_embedding): Embedding(3072, 1024)\n    )\n    (text_projection): Qwen3OmniMoeTalkerResizeMLP(\n      (linear_fc1): Linear(in_features=2048, out_features=2048, bias=True)\n      (linear_fc2): Linear(in_features=2048, out_features=1024, bias=True)\n      (act_fn): SiLUActivation()\n    )\n    (hidden_projection): Qwen3OmniMoeTalkerResizeMLP(\n      (linear_fc1): Linear(in_features=2048, out_features=2048, bias=True)\n      (linear_fc2): Linear(in_features=2048, out_features=1024, bias=True)\n      (act_fn): SiLUActivation()\n    )\n    (codec_head): Linear(in_features=1024, out_features=3072, bias=False)\n    (code_predictor): Qwen3OmniMoeTalkerCodePredictorModelForConditionalGeneration(\n      (model): Qwen3OmniMoeTalkerCodePredictorModel(\n        (layers): ModuleList(\n          (0-4): 5 x Qwen3OmniMoeTalkerCodePredictorDecoderLayer(\n            (self_attn): Qwen3OmniMoeTalkerCodePredictorAttention(\n              (q_proj): Linear(in_features=1024, out_features=2048, bias=False)\n              (k_proj): Linear(in_features=1024, out_features=1024, bias=False)\n              (v_proj): Linear(in_features=1024, out_features=1024, bias=False)\n              (o_proj): Linear(in_features=2048, out_features=1024, bias=False)\n              (q_norm): Qwen3OmniMoeRMSNorm((128,), eps=1e-06)\n              (k_norm): Qwen3OmniMoeRMSNorm((128,), eps=1e-06)\n            )\n            (mlp): Qwen3OmniMoeMLP(\n              (gate_proj): Linear(in_features=1024, out_features=3072, bias=False)\n              (up_proj): Linear(in_features=1024, out_features=3072, bias=False)\n              (down_proj): Linear(in_features=3072, out_features=1024, bias=False)\n              (act_fn): SiLUActivation()\n            )\n            (input_layernorm): Qwen3OmniMoeRMSNorm((1024,), eps=1e-06)\n            (post_attention_layernorm): Qwen3OmniMoeRMSNorm((1024,), eps=1e-06)\n          )\n        )\n        (norm): Qwen3OmniMoeRMSNorm((1024,), eps=1e-06)\n        (rotary_emb): Qwen3OmniMoeRotaryEmbedding()\n        (codec_embedding): ModuleList(\n          (0-14): 15 x Embedding(2048, 1024)\n        )\n      )\n      (lm_head): ModuleList(\n        (0-14): 15 x Linear(in_features=1024, out_features=2048, bias=False)\n      )\n    )\n  )\n  (code2wav): Qwen3OmniMoeCode2Wav(\n    (pre_transformer): Qwen3OmniMoeCode2WavTransformerModel(\n      (layers): ModuleList(\n        (0-7): 8 x Qwen3OmniMoeCode2WavTransformerLayer(\n          (self_attn): Qwen3OmniMoeCode2WavAttention(\n            (q_proj): Linear(in_features=1024, out_features=1024, bias=False)\n            (k_proj): Linear(in_features=1024, out_features=1024, bias=False)\n            (v_proj): Linear(in_features=1024, out_features=1024, bias=False)\n            (o_proj): Linear(in_features=1024, out_features=1024, bias=False)\n            (q_norm): Identity()\n            (k_norm): Identity()\n          )\n          (mlp): Qwen3OmniMoeCode2WavMlp(\n            (gate_proj): Linear(in_features=1024, out_features=3072, bias=False)\n            (up_proj): Linear(in_features=1024, out_features=3072, bias=False)\n            (down_proj): Linear(in_features=3072, out_features=1024, bias=False)\n            (act_fn): SiLUActivation()\n          )\n          (input_layernorm): Qwen3OmniMoeCode2WavRMSNorm((1024,), eps=1e-05)\n          (post_attention_layernorm): Qwen3OmniMoeCode2WavRMSNorm((1024,), eps=1e-05)\n          (self_attn_layer_scale): Qwen3OmniMoeCode2WavLayerScale()\n          (mlp_layer_scale): Qwen3OmniMoeCode2WavLayerScale()\n        )\n      )\n      (norm): Qwen3OmniMoeRMSNorm((1024,), eps=1e-05)\n      (rotary_emb): Qwen3OmniMoeRotaryEmbedding()\n    )\n    (code_embedding): Embedding(32768, 1024)\n    (upsample): ModuleList(\n      (0-1): 2 x ModuleList(\n        (0): Qwen3OmniMoeCausalTransConvNet(\n          (conv): ConvTranspose1d(1024, 1024, kernel_size=(2,), stride=(2,))\n        )\n        (1): Qwen3OmniMoeConvNeXtBlock(\n          (dwconv): Qwen3OmniMoeCausalConvNet(\n            (conv): Conv1d(1024, 1024, kernel_size=(7,), stride=(1,), groups=1024)\n          )\n          (norm): LayerNorm((1024,), eps=1e-06, elementwise_affine=True)\n          (pwconv1): Linear(in_features=1024, out_features=4096, bias=True)\n          (act): GELU(approximate='none')\n          (pwconv2): Linear(in_features=4096, out_features=1024, bias=True)\n        )\n      )\n    )\n    (decoder): ModuleList(\n      (0): Qwen3OmniMoeCausalConvNet(\n        (conv): Conv1d(1024, 1536, kernel_size=(7,), stride=(1,))\n      )\n      (1): Qwen3OmniMoeCode2WavDecoderBlock(\n        (block): ModuleList(\n          (0): SnakeBeta()\n          (1): Qwen3OmniMoeCausalTransConvNet(\n            (conv): ConvTranspose1d(1536, 768, kernel_size=(16,), stride=(8,))\n          )\n          (2): Qwen3OmniMoeCode2WavDecoderResidualUnit(\n            (act1): SnakeBeta()\n            (conv1): Qwen3OmniMoeCausalConvNet(\n              (conv): Conv1d(768, 768, kernel_size=(7,), stride=(1,))\n            )\n            (act2): SnakeBeta()\n            (conv2): Qwen3OmniMoeCausalConvNet(\n              (conv): Conv1d(768, 768, kernel_size=(1,), stride=(1,))\n            )\n          )\n          (3): Qwen3OmniMoeCode2WavDecoderResidualUnit(\n            (act1): SnakeBeta()\n            (conv1): Qwen3OmniMoeCausalConvNet(\n              (conv): Conv1d(768, 768, kernel_size=(7,), stride=(1,), dilation=(3,))\n            )\n            (act2): SnakeBeta()\n            (conv2): Qwen3OmniMoeCausalConvNet(\n              (conv): Conv1d(768, 768, kernel_size=(1,), stride=(1,))\n            )\n          )\n          (4): Qwen3OmniMoeCode2WavDecoderResidualUnit(\n            (act1): SnakeBeta()\n            (conv1): Qwen3OmniMoeCausalConvNet(\n              (conv): Conv1d(768, 768, kernel_size=(7,), stride=(1,), dilation=(9,))\n            )\n            (act2): SnakeBeta()\n            (conv2): Qwen3OmniMoeCausalConvNet(\n              (conv): Conv1d(768, 768, kernel_size=(1,), stride=(1,))\n            )\n          )\n        )\n      )\n      (2): Qwen3OmniMoeCode2WavDecoderBlock(\n        (block): ModuleList(\n          (0): SnakeBeta()\n          (1): Qwen3OmniMoeCausalTransConvNet(\n            (conv): ConvTranspose1d(768, 384, kernel_size=(10,), stride=(5,))\n          )\n          (2): Qwen3OmniMoeCode2WavDecoderResidualUnit(\n            (act1): SnakeBeta()\n            (conv1): Qwen3OmniMoeCausalConvNet(\n              (conv): Conv1d(384, 384, kernel_size=(7,), stride=(1,))\n            )\n            (act2): SnakeBeta()\n            (conv2): Qwen3OmniMoeCausalConvNet(\n              (conv): Conv1d(384, 384, kernel_size=(1,), stride=(1,))\n            )\n          )\n          (3): Qwen3OmniMoeCode2WavDecoderResidualUnit(\n            (act1): SnakeBeta()\n            (conv1): Qwen3OmniMoeCausalConvNet(\n              (conv): Conv1d(384, 384, kernel_size=(7,), stride=(1,), dilation=(3,))\n            )\n            (act2): SnakeBeta()\n            (conv2): Qwen3OmniMoeCausalConvNet(\n              (conv): Conv1d(384, 384, kernel_size=(1,), stride=(1,))\n            )\n          )\n          (4): Qwen3OmniMoeCode2WavDecoderResidualUnit(\n            (act1): SnakeBeta()\n            (conv1): Qwen3OmniMoeCausalConvNet(\n              (conv): Conv1d(384, 384, kernel_size=(7,), stride=(1,), dilation=(9,))\n            )\n            (act2): SnakeBeta()\n            (conv2): Qwen3OmniMoeCausalConvNet(\n              (conv): Conv1d(384, 384, kernel_size=(1,), stride=(1,))\n            )\n          )\n        )\n      )\n      (3): Qwen3OmniMoeCode2WavDecoderBlock(\n        (block): ModuleList(\n          (0): SnakeBeta()\n          (1): Qwen3OmniMoeCausalTransConvNet(\n            (conv): ConvTranspose1d(384, 192, kernel_size=(8,), stride=(4,))\n          )\n          (2): Qwen3OmniMoeCode2WavDecoderResidualUnit(\n            (act1): SnakeBeta()\n            (conv1): Qwen3OmniMoeCausalConvNet(\n              (conv): Conv1d(192, 192, kernel_size=(7,), stride=(1,))\n            )\n            (act2): SnakeBeta()\n            (conv2): Qwen3OmniMoeCausalConvNet(\n              (conv): Conv1d(192, 192, kernel_size=(1,), stride=(1,))\n            )\n          )\n          (3): Qwen3OmniMoeCode2WavDecoderResidualUnit(\n            (act1): SnakeBeta()\n            (conv1): Qwen3OmniMoeCausalConvNet(\n              (conv): Conv1d(192, 192, kernel_size=(7,), stride=(1,), dilation=(3,))\n            )\n            (act2): SnakeBeta()\n            (conv2): Qwen3OmniMoeCausalConvNet(\n              (conv): Conv1d(192, 192, kernel_size=(1,), stride=(1,))\n            )\n          )\n          (4): Qwen3OmniMoeCode2WavDecoderResidualUnit(\n            (act1): SnakeBeta()\n            (conv1): Qwen3OmniMoeCausalConvNet(\n              (conv): Conv1d(192, 192, kernel_size=(7,), stride=(1,), dilation=(9,))\n            )\n            (act2): SnakeBeta()\n            (conv2): Qwen3OmniMoeCausalConvNet(\n              (conv): Conv1d(192, 192, kernel_size=(1,), stride=(1,))\n            )\n          )\n        )\n      )\n      (4): Qwen3OmniMoeCode2WavDecoderBlock(\n        (block): ModuleList(\n          (0): SnakeBeta()\n          (1): Qwen3OmniMoeCausalTransConvNet(\n            (conv): ConvTranspose1d(192, 96, kernel_size=(6,), stride=(3,))\n          )\n          (2): Qwen3OmniMoeCode2WavDecoderResidualUnit(\n            (act1): SnakeBeta()\n            (conv1): Qwen3OmniMoeCausalConvNet(\n              (conv): Conv1d(96, 96, kernel_size=(7,), stride=(1,))\n            )\n            (act2): SnakeBeta()\n            (conv2): Qwen3OmniMoeCausalConvNet(\n              (conv): Conv1d(96, 96, kernel_size=(1,), stride=(1,))\n            )\n          )\n          (3): Qwen3OmniMoeCode2WavDecoderResidualUnit(\n            (act1): SnakeBeta()\n            (conv1): Qwen3OmniMoeCausalConvNet(\n              (conv): Conv1d(96, 96, kernel_size=(7,), stride=(1,), dilation=(3,))\n            )\n            (act2): SnakeBeta()\n            (conv2): Qwen3OmniMoeCausalConvNet(\n              (conv): Conv1d(96, 96, kernel_size=(1,), stride=(1,))\n            )\n          )\n          (4): Qwen3OmniMoeCode2WavDecoderResidualUnit(\n            (act1): SnakeBeta()\n            (conv1): Qwen3OmniMoeCausalConvNet(\n              (conv): Conv1d(96, 96, kernel_size=(7,), stride=(1,), dilation=(9,))\n            )\n            (act2): SnakeBeta()\n            (conv2): Qwen3OmniMoeCausalConvNet(\n              (conv): Conv1d(96, 96, kernel_size=(1,), stride=(1,))\n            )\n          )\n        )\n      )\n      (5): SnakeBeta()\n      (6): Qwen3OmniMoeCausalConvNet(\n        (conv): Conv1d(96, 1, kernel_size=(7,), stride=(1,))\n      )\n    )\n  )\n)>\n[38;20m2026-05-25 08:39:26 INFO replace_modules.py L107: Experts (before replacement) [thinker.model.layers.0.mlp.experts] (SequentialQwen3OmniThinkerExperts):\nSequentialQwen3OmniThinkerExperts(\n  (0-127): 128 x Qwen3OmniMoeThinkerTextMLP(\n    (gate_proj): QuantLinear()\n    (up_proj): QuantLinear()\n    (down_proj): QuantLinear()\
…
iThinkerExperts(\n  (0-127): 128 x Qwen3OmniMoeThinkerTextMLP(\n    (gate_proj): QuantLinear()\n    (up_proj): QuantLinear()\n    (down_proj): QuantLinear()\n    (act_fn): SiLUActivation()\n  )\n)[0m\n\nAfter patches:\n  thinker.forward: <bound method Qwen3OmniMoeThinkerForConditionalGeneration.forward of Qwen3OmniMoeThinkerForConditionalGeneration(\n  (audio_tower): Qwen3OmniMoeAudioEncoder(\n    (positional_embedding): SinusoidsPositionEmbedding()\n    (layers): ModuleList(\n      (0-31): 32 x Qwen3OmniMoeAudioEncoderLayer(\n        (self_attn): Qwen3OmniMoeAudioAttention(\n          (k_proj): Linear(in_features=1280, out_features=1280, bias=True)\n          (v_proj): Linear(in_features=1280, out_features=1280, bias=True)\n          (q_proj): Linear(in_features=1280, out_features=1280, bias=True)\n          (out_proj): Linear(in_features=1280, out_features=1280, bias=True)\n        )\n        (self_attn_layer_norm): LayerNorm((1280,), eps=1e-05, elementwise_affine=True)\n        (activation_fn): GELUActivation()\n        (fc1): Linear(in_features=1280, out_features=5120, bias=True)\n        (fc2): Linear(in_features=5120, out_features=1280, bias=True)\n        (final_layer_norm): LayerNorm((1280,), eps=1e-05, elementwise_affine=True)\n      )\n    )\n    (ln_post): LayerNorm((1280,), eps=1e-05, elementwise_affine=True)\n    (conv2d1): Conv2d(1, 480, kernel_size=(3, 3), stride=(2, 2), padding=(1, 1))\n    (conv2d2): Conv2d(480, 480, kernel_size=(3, 3), stride=(2, 2), padding=(1, 1))\n    (conv2d3): Conv2d(480, 480, kernel_size=(3, 3), stride=(2, 2), padding=(1, 1))\n    (conv_out): Linear(in_features=7680, out_features=1280, bias=False)\n    (proj1): Linear(in_features=1280, out_features=1280, bias=True)\n    (act): GELUActivation()\n    (proj2): Linear(in_features=1280, out_features=2048, bias=True)\n  )\n  (visual): Qwen3OmniMoeVisionEncoder(\n    (merger_list): ModuleList(\n      (0-2): 3 x Qwen3OmniMoeVisionPatchMerger(\n        (ln_q): LayerNorm((4608,), eps=1e-06, elementwise_affine=True)\n        (mlp): ModuleList(\n          (0): Linear(in_features=4608, out_features=4608, bias=True)\n          (1): GELU(approximate='none')\n          (2): Linear(in_features=4608, out_features=2048, bias=True)\n        )\n      )\n    )\n    (patch_embed): Qwen3OmniMoeVisionPatchEmbed(\n      (proj): Conv3d(3, 1152, kernel_size=(2, 16, 16), stride=(2, 16, 16))\n    )\n    (pos_embed): Embedding(2304, 1152)\n    (rotary_pos_emb): Qwen3OmniMoeVisionRotaryEmbedding()\n    (blocks): ModuleList(\n      (0-26): 27 x Qwen3OmniMoeVisionBlock(\n        (norm1): LayerNorm((1152,), eps=1e-06, elementwise_affine=True)\n        (norm2): LayerNorm((1152,), eps=1e-06, elementwise_affine=True)\n        (attn): Qwen3OmniMoeVisionAttention(\n          (qkv): Linear(in_features=1152, out_features=3456, bias=True)\n          (proj): Linear(in_features=1152, out_features=1152, bias=True)\n        )\n        (mlp): Qwen3OmniMoeVisionMLP(\n          (linear_fc1): Linear(in_features=1152, out_features=4304, bias=True)\n          (linear_fc2): Linear(in_features=4304, out_features=1152, bias=True)\n          (act_fn): GELUTanh()\n        )\n      )\n    )\n    (merger): Qwen3OmniMoeVisionPatchMerger(\n      (ln_q): LayerNorm((1152,), eps=1e-06, elementwise_affine=True)\n      (mlp): ModuleList(\n        (0): Linear(in_features=4608, out_features=4608, bias=True)\n        (1): GELU(approximate='none')\n        (2): Linear(in_features=4608, out_features=2048, bias=True)\n      )\n    )\n  )\n  (model): Qwen3OmniMoeThinkerTextModel(\n    (embed_tokens): Embedding(152064, 2048)\n    (layers): ModuleList(\n      (0-47): 48 x Qwen3OmniMoeThinkerTextDecoderLayer(\n        (self_attn): Qwen3OmniMoeThinkerTextAttention(\n          (q_proj): QuantLinear()\n          (k_proj): QuantLinear()\n          (v_proj): QuantLinear()\n          (o_proj): QuantLinear()\n          (q_norm): Qwen3OmniMoeThinkerTextRMSNorm((128,), eps=1e-06)\n          (k_norm): Qwen3OmniMoeTh
…
      (0-127): 128 x Qwen3OmniMoeThinkerTextMLP(\n                (gate_proj): QuantLinear()\n                (up_proj): QuantLinear()\n                (down_proj): QuantLinear()\n                (act_fn): SiLUActivation()\n              )\n            )\n          )\n          (input_layernorm): Qwen3OmniMoeThinkerTextRMSNorm((2048,), eps=1e-06)\n          (post_attention_layernorm): Qwen3OmniMoeThinkerTextRMSNorm((2048,), eps=1e-06)\n        )\n      )\n      (norm): Qwen3OmniMoeTextRMSNorm((2048,), eps=1e-06)\n      (rotary_emb): Qwen3OmniMoeThinkerTextRotaryEmbedding()\n    )\n    (lm_head): Linear(in_features=2048, out_features=152064, bias=False)\n  )\n  (talker): Qwen3OmniMoeTalkerForConditionalGeneration(\n    (model): Qwen3OmniMoeTalkerModel(\n      (layers): ModuleList(\n        (0-19): 20 x Qwen3OmniMoeTalkerDecoderLayer(\n          (self_attn): Qwen3OmniMoeThinkerTextAttention(\n            (q_proj): Linear(in_features=1024, out_features=2048, bias=False)\n            (k_proj): Linear(in_features=1024, out_features=256, bias=False)\n            (v_proj): Linear(in_features=1024, out_features=256, bias=False)\n            (o_proj): Linear(in_features=2048, out_features=1024, bias=False)\n            (q_norm): Qwen3OmniMoeThinkerTextRMSNorm((128,), eps=1e-06)\n            (k_norm): Qwen3OmniMoeThinkerTextRMSNorm((128,), eps=1e-06)\n          )\n          (mlp): LinearQwen3OmniTalkerSparseMoeBlock(\n            (gate): Qwen3OmniMoeTalkerTextTopKRouter()\n            (shared_expert): Qwen3OmniMoeTalkerTextMLP(\n              (gate_proj): Linear(in_features=1024, out_features=768, bias=False)\n              (up_proj): Linear(in_features=1024, out_features=768, bias=False)\n              (down_proj): Linear(in_features=768, out_features=1024, bias=False)\n              (act_fn): SiLUActivation()\n            )\n            (shared_expert_gate): Linear(in_features=1024, out_features=1, bias=False)\n            (experts): SequentialQwen3OmniTalkerExperts(\n              (0-127): 128 x Qwen3OmniMoeTalkerTextMLP(\n                (gate_proj): Linear(in_features=1024, out_features=384, bias=False)\n                (up_proj): Linear(in_features=1024, out_features=384, bias=False)\n                (down_proj): Linear(in_features=384, out_features=1024, bias=False)\n                (act_fn): SiLUActivation()\n              )\n            )\n          )\n          (input_layernorm): Qwen3OmniMoeThinkerTextRMSNorm((1024,), eps=1e-06)\n          (post_attention_layernorm): Qwen3OmniMoeThinkerTextRMSNorm((1024,), eps=1e-06)\n        )\n      )\n      (norm): Qwen3OmniMoeTextRMSNorm((1024,), eps=1e-06)\n      (rotary_emb): Qwen3OmniMoeTalkerRotaryEmbedding()\n      (codec_embedding): Embedding(3072, 1024)\n    )\n    (text_projection): Qwen3OmniMoeTalkerResizeMLP(\n      (linear_fc1): Linear(in_features=2048, out_features=2048, bias=True)\n      (linear_fc2): Linear(in_features=2048, out_features=1024, bias=True)\n      (act_fn): SiLUActivation()\n    )\n    (hidden_projection): Qwen3OmniMoeTalkerResizeMLP(\n      (linear_fc1): Linear(in_features=2048, out_features=2048, bias=True)\n      (linear_fc2): Linear(in_features=2048, out_features=1024, bias=True)\n      (act_fn): SiLUActivation()\n    )\n    (codec_head): Linear(in_features=1024, out_features=3072, bias=False)\n    (code_predictor): Qwen3OmniMoeTalkerCodePredictorModelForConditionalGeneration(\n      (model): Qwen3OmniMoeTalkerCodePredictorModel(\n        (layers): ModuleList(\n          (0-4): 5 x Qwen3OmniMoeTalkerCodePredictorDecoderLayer(\n            (self_attn): Qwen3OmniMoeTalkerCodePredictorAttention(\n              (q_proj): Linear(in_features=1024, out_features=2048, bias=False)\n              (k_proj): Linear(in_features=1024, out_features=1024, bias=False)\n              (v_proj): Linear(in_features=1024, out_features=1024, bias=False)\n              (o_proj): Linear(in_features=2048, out_features=1024, bias=False)\n              (q_norm): Qwen3OmniMoeRMSNorm((128,), eps=1e-06)\n              (k_norm): Qwen3OmniMoeRMSNorm((128,), eps=1e-06)\n            )\n            (mlp): Qwen3OmniMoeMLP(\n              (gate_proj): Linear(in_features=1024, out_features=3072, bias=False)\n              (up_proj): Linear(in_features=1024, out_features=3072, bias=False)\n              (down_proj): Linear(in_features=3072, out_features=1024, bias=False)\n              (act_fn): SiLUActivation()\n            )\n            (input_layernorm): Qwen3OmniMoeRMSNorm((1024,), eps=1e-06)\n            (post_attention_layernorm): Qwen3OmniMoeRMSNorm((1024,), eps=1e-06)\n          )\n        )\n        (norm): Qwen3OmniMoeRMSNorm((1024,), eps=1e-06)\n        (rotary_emb): Qwen3OmniMoeRotaryEmbedding()\n        (codec_embedding): ModuleList(\n          (0-14): 15 x Embedding(2048, 1024)\n        )\n      )\n      (lm_head): ModuleList(\n        (0-14): 15 x Linear(in_features=1024, out_features=2048, bias=False)\n      )\n    )\n  )\n  (code2wav): Qwen3OmniMoeCode2Wav(\n    (pre_transformer): Qwen3OmniMoeCode2WavTransformerModel(\n      (layers): ModuleList(\n        (0-7): 8 x Qwen3OmniMoeCode2WavTransformerLayer(\n          (self_attn): Qwen3OmniMoeCode2WavAttention(\n            (q_proj): Linear(in_features=1024, out_features=1024, bias=False)\n            (k_proj): Linear(in_features=1024, out_features=1024, bias=False)\n            (v_proj): Linear(in_features=1024, out_features=1024, bias=False)\n            (o_proj): Linear(in_features=1024, out_features=1024, bias=False)\n            (q_norm): Identity()\n            (k_norm): Identity()\n          )\n          (mlp): Qwen3OmniMoeCode2WavMlp(\n            (gate_proj): Linear(in_features=1024, out_features=3072, bias=False)\n            (up_proj): Linear(in_features=1024, out_features=3072, bias=False)\n            (down_proj): Linear(in_features=3072, out_features=1024, bias=False)\n            (act_fn): SiLUActivation()\n          )\n          (input_layernorm): Qwen3OmniMoeCode2WavRMSNorm((1024,), eps=1e-05)\n          (post_attention_layernorm): Qwen3OmniMoeCode2WavRMSNorm((1024,), eps=1e-05)\n          (self_attn_layer_scale): Qwen3OmniMoeCode2WavLayerScale()\n          (mlp_layer_scale): Qwen3OmniMoeCode2WavLayerScale()\n        )\n      )\n      (norm): Qwen3OmniMoeRMSNorm((1024,), eps=1e-05)\n      (rotary_emb): Qwen3OmniMoeRotaryEmbedding()\n    )\n    (code_embedding): Embedding(32768, 1024)\n    (upsample): ModuleList(\n      (0-1): 2 x ModuleList(\n        (0): Qwen3OmniMoeCausalTransConvNet(\n          (conv): ConvTranspose1d(1024, 1024, kernel_size=(2,), stride=(2,))\n        )\n        (1): Qwen3OmniMoeConvNeXtBlock(\n          (dwconv): Qwen3OmniMoeCausalConvNet(\n            (conv): Conv1d(1024, 1024, kernel_size=(7,), stride=(1,), groups=1024)\n          )\n          (norm): LayerNorm((1024,), eps=1e-06, elementwise_affine=True)\n          (pwconv1): Linear(in_features=1024, out_features=4096, bias=True)\n          (act): GELU(approximate='none')\n          (pwconv2): Linear(in_features=4096, out_features=1024, bias=True)\n        )\n      )\n    )\n    (decoder): ModuleList(\n      (0): Qwen3OmniMoeCausalConvNet(\n        (conv): Conv1d(1024, 1536, kernel_size=(7,), stride=(1,))\n      )\n      (1): Qwen3OmniMoeCode2WavDecoderBlock(\n        (block): ModuleList(\n          (0): SnakeBeta()\n          (1): Qwen3OmniMoeCausalTransConvNet(\n            (conv): ConvTranspose1d(1536, 768, kernel_size=(16,), stride=(8,))\n          )\n          (2): Qwen3OmniMoeCode2WavDecoderResidualUnit(\n            (act1): SnakeBeta()\n            (conv1): Qwen3OmniMoeCausalConvNet(\n              (conv): Conv1d(768, 768, kernel_size=(7,), stride=(1,))\n            )\n            (act2): SnakeBeta()\n            (conv2): Qwen3OmniMoeCausalConvNet(\n              (conv): Conv1d(768, 768, kernel_size=(1,), stride=(1,))\n            )\n          )\n          (3): Qwen3OmniMoeCode2WavDecoderResidualUnit(\n            (act1): SnakeBeta()\n            (conv1): Qwen3OmniMoeCausalConvNet(\n              (conv): Conv1d(768, 768, kernel_size=(7,), stride=(1,), dilation=(3,))\n            )\n            (act2): SnakeBeta()\n            (conv2): Qwen3OmniMoeCausalConvNet(\n              (conv): Conv1d(768, 768, kernel_size=(1,), stride=(1,))\n            )\n          )\n          (4): Qwen3OmniMoeCode2WavDecoderResidualUnit(\n            (act1): SnakeBeta()\n            (conv1): Qwen3OmniMoeCausalConvNet(\n              (conv): Conv1d(768, 768, kernel_size=(7,), stride=(1,), dilation=(9,))\n            )\n            (act2): SnakeBeta()\n            (conv2): Qwen3OmniMoeCausalConvNet(\n              (conv): Conv1d(768, 768, kernel_size=(1,), stride=(1,))\n            )\n          )\n        )\n      )\n      (2): Qwen3OmniMoeCode2WavDecoderBlock(\n        (block): ModuleList(\n          (0): SnakeBeta()\n          (1): Qwen3OmniMoeCausalTransConvNet(\n            (conv): ConvTranspose1d(768, 384, kernel_size=(10,), stride=(5,))\n          )\n          (2): Qwen3OmniMoeCode2WavDecoderResidualUnit(\n            (act1): SnakeBeta()\n            (conv1): Qwen3OmniMoeCausalConvNet(\n              (conv): Conv1d(384, 384, kernel_size=(7,), stride=(1,))\n            )\n            (act2): SnakeBeta()\n            (conv2): Qwen3OmniMoeCausalConvNet(\n              (conv): Conv1d(384, 384, kernel_size=(1,), stride=(1,))\n            )\n          )\n          (3): Qwen3OmniMoeCode2WavDecoderResidualUnit(\n            (act1): SnakeBeta()\n            (conv1): Qwen3OmniMoeCausalConvNet(\n              (conv): Conv1d(384, 384, kernel_size=(7,), stride=(1,), dilation=(3,))\n            )\n            (act2): SnakeBeta()\n            (conv2): Qwen3OmniMoeCausalConvNet(\n              (conv): Conv1d(384, 384, kernel_size=(1,), stride=(1,))\n            )\n          )\n          (4): Qwen3OmniMoeCode2WavDecoderResidualUnit(\n            (act1): SnakeBeta()\n            (conv1): Qwen3OmniMoeCausalConvNet(\n              (conv): Conv1d(384, 384, kernel_size=(7,), stride=(1,), dilation=(9,))\n            )\n            (act2): SnakeBeta()\n            (conv2): Qwen3OmniMoeCausalConvNet(\n              (conv): Conv1d(384, 384, kernel_size=(1,), stride=(1,))\n            )\n          )\n        )\n      )\n      (3): Qwen3OmniMoeCode2WavDecoderBlock(\n        (block): ModuleList(\n          (0): SnakeBeta()\n          (1): Qwen3OmniMoeCausalTransConvNet(\n            (conv): ConvTranspose1d(384, 192, kernel_size=(8,), stride=(4,))\n          )\n          (2): Qwen3OmniMoeCode2WavDecoderResidualUnit(\n            (act1): SnakeBeta()\n            (conv1): Qwen3OmniMoeCausalConvNet(\n              (conv): Conv1d(192, 192, kernel_size=(7,), stride=(1,))\n            )\n            (act2): SnakeBeta()\n            (conv2): Qwen3OmniMoeCausalConvNet(\n              (conv): Conv1d(192, 192, kernel_size=(1,), stride=(1,))\n            )\n          )\n          (3): Qwen3OmniMoeCode2WavDecoderResidualUnit(\n            (act1): SnakeBeta()\n            (conv1): Qwen3OmniMoeCausalConvNet(\n              (conv): Conv1d(192, 192, kernel_size=(7,), stride=(1,), dilation=(3,))\n            )\n            (act2): SnakeBeta()\n            (conv2): Qwen3OmniMoeCausalConvNet(\n              (conv): Conv1d(192, 192, kernel_size=(1,), stride=(1,))\n            )\n          )\n          (4): Qwen3OmniMoeCode2WavDecoderResidualUnit(\n            (act1): SnakeBeta()\n            (conv1): Qwen3OmniMoeCausalConvNet(\n              (conv): Conv1d(192, 192, kernel_size=(7,), stride=(1,), dilation=(9,))\n            )\n            (act2): SnakeBeta()\n            (conv2): Qwen3OmniMoeCausalConvNet(\n              (conv): Conv1d(192, 192, kernel_size=(1,), stride=(1,))\n            )\n          )\n        )\n      )\n      (4): Qwen3OmniMoeCode2WavDecoderBlock(\n        (block): ModuleList(\n          (0): SnakeBeta()\n          (1): Qwen3OmniMoeCausalTransConvNet(\n            (conv): ConvTranspose1d(192, 96, kernel_size=(6,), stride=(3,))\n          )\n          (2): Qwen3OmniMoeCode2WavDecoderResidualUnit(\n            (act1): SnakeBeta()\n            (conv1): Qwen3OmniMoeCausalConvNet(\n              (conv): Conv1d(96, 96, kernel_size=(7,), stride=(1,))\n            )\n            (act2): SnakeBeta()\n            (conv2): Qwen3OmniMoeCausalConvNet(\n              (conv): Conv1d(96, 96, kernel_size=(1,), stride=(1,))\n            )\n          )\n          (3): Qwen3OmniMoeCode2WavDecoderResidualUnit(\n            (act1): SnakeBeta()\n            (conv1): Qwen3OmniMoeCausalConvNet(\n              (conv): Conv1d(96, 96, kernel_size=(7,), stride=(1,), dilation=(3,))\n            )\n            (act2): SnakeBeta()\n            (conv2): Qwen3OmniMoeCausalConvNet(\n              (conv): Conv1d(96, 96, kernel_size=(1,), stride=(1,))\n            )\n          )\n          (4): Qwen3OmniMoeCode2WavDecoderResidualUnit(\n            (act1): SnakeBeta()\n            (conv1): Qwen3OmniMoeCausalConvNet(\n              (conv): Conv1d(96, 96, kernel_size=(7,), stride=(1,), dilation=(9,))\n            )\n            (act2): SnakeBeta()\n            (conv2): Qwen3OmniMoeCausalConvNet(\n              (conv): Conv1d(96, 96, kernel_size=(1,), stride=(1,))\n            )\n          )\n        )\n      )\n      (5): SnakeBeta()\n      (6): Qwen3OmniMoeCausalConvNet(\n        (conv): Conv1d(96, 1, kernel_size=(7,), stride=(1,))\n      )\n    )\n  )\n)>\n","name":"VENV_PY=/root/.openclaw/workspace/quantized/runs/Intel_Qwen3-Omni-30B-A3B-Instruct-int4-AutoRound-W4A16-RTN/venv/bin/python $VENV_PY"},"isError":false,"timestamp":1779698369562}}
{"type":"message","id":"82095920","parentId":"86734b3f","timestamp":"2026-05-25T08:39:39.154Z","message":{"role":"assistant","content":[{"type":"th
…
