…
15:43:37 [INFO] HTTP Request: HEAD https://huggingface.co/sasa2000/Qwen3-Swallow-30B-A3B-RL-v0.2-heretic/resolve/main/custom_generate/generate.py "HTTP/1.1 404 Not Found"
15:43:37 [INFO] HTTP Request: HEAD https://huggingface.co/sasa2000/Qwen3-Swallow-30B-A3B-RL-v0.2-heretic/resolve/main/custom_generate/generate.py "HTTP/1.1 404 Not Found"
15:43:38 [INFO] Starting quantization...
15:43:38 [INFO] Starting quantization...
[38;20m2026-06-09 15:43:38 INFO replace_modules.py L120: Experts (before replacement) [model.layers.0.mlp.experts] (ModuleList):
ModuleList(
  (0-127): 128 x Qwen3MoeMLP(
    (gate_proj): Linear(in_features=2048, out_features=768, bias=False)
    (up_proj): Linear(in_features=2048, out_features=768, bias=False)
    (down_proj): Linear(in_features=768, out_features=2048, bias=False)
    (act_fn): SiLUActivation()
  )
)[0m
[38;20m2026-06-09 15:43:38 INFO replace_modules.py L120: Experts (before replacement) [model.layers.0.mlp.experts] (ModuleList):
ModuleList(
  (0-127): 128 x Qwen3MoeMLP(
    (gate_proj): Linear(in_features=2048, out_features=768, bias=False)
    (up_proj): Linear(in_features=2048, out_features=768, bias=False)
    (down_proj): Linear(in_features=768, out_features=2048, bias=False)
    (act_fn): SiLUActivation()
  )
)[0m
[transformers] `loss_type=None` was set in the config but it is unrecognized. Using the default loss: `ForCausalLMLoss`.
[transformers] `loss_type=None` was set in the config but it is unrecognized. Using the default loss: `ForCausalLMLoss`.
[38;20m2026-06-09 15:43:39 INFO replace_modules.py L120: Experts (after replacement) [model.layers.0.mlp.experts] (ModuleList):
ModuleList(
  (0-127): 128 x Qwen3MoeMLP(
    (gate_proj): Linear(in_features=2048, out_features=768, bias=False)
    (up_proj): Linear(in_features=2048, out_features=768, bias=False)
    (down_proj): Linear(in_features=768, out_features=2048, bias=False)
    (act_fn): SiLUActivation()
  )
)[0m
[38;20m2026-06-09 15:43:39 INFO replace_modules.py L120: Experts (after replacement) [model.layers.0.mlp.experts] (ModuleList):
ModuleList(
  (0-127): 128 x Qwen3MoeMLP(
    (gate_proj): Linear(in_features=2048, out_features=768, bias=False)
    (up_proj): Linear(in_features=2048, out_features=768, bias=False)
    (down_proj): Linear(in_features=768, out_features=2048, bias=False)
    (act_fn): SiLUActivation()
  )
)[0m
[38;20m2026-06-09 15:43:40 INFO base.py L572: Using predefined ignore_layers: model.layers.[0-47].mlp.gate[0m
[38;20m2026-06-09 15:43:40 INFO base.py L572: Using predefined ignore_layers: model.layers.[0-47].mlp.gate[0m
[38;20m2026-06-09 15:43:40 INFO utils.py L1069: Ignored layers: lm_head, lm_head, mlp.gate, model.layers.[0-47].mlp.gate, model.layers.[0-47].mlp.gate, model.layers.[0-47].self_attn.k_proj, model.layers.[0-47].self_attn.o_proj, model.layers.[0-47].self_attn.q_proj, model.layers.[0-47].self_attn.v_proj, self_attn[0m
…
